best_lstm_model.pth (torch, 215410 bytes, 11 tensors)

lstm.weight_ih_l0 f4 [256, 6]
00000000: 900c 83bc db5e 3a3d 06f2 67bd 2025 e83d
00000010: cc65 30bd 50e7 1bbc 3dd6 133d a014 81bc
00000020: 812d be3d 6fad 24bd c64a f03d 12af 5dbd
00000030: 4402 dc3d 2d7d 103e 4e18 953d f832 7f3d
00000040: 73be a9bd 7420 143e 0906 9c3d e536 cf3d
00000050: 78b8 28bc 058d 363e c6da 1f3d c6d3 32bc
00000060: 44c9 c03d 5ea3 fb3a 2947 8d3d 6139 9a3d
00000070: 9a7c cd3d 6004 15bd 74ac c6bc 41f2 623a
00000080: 3217 8d3d 6a32 873d 9bc2 2ebd 6c88 11bc
00000090: f2dd e73d 9d61 7c3d 62f6 3f3e 9dff fd3d
000000a0: e480 bbbb 33fb 9c3e d5f3 8d3d b48a d63d
000000b0: e384 843d 5d58 e43d 41be 0a3d bfeb 80bd
000000c0: 51ba c23d d916 8f3d 6e9c d53d 92e1 2c3e
000000d0: 8a4d 123e 1b3f 863e af2e 3cbd d6ac bfbd
000000e0: faf0 503c 751c 1f3e 09c3 03bd a825 723d
000000f0: fe76 823e 90dc 8b3d 851c 9c3e 99d1 953d
00000100: eaf6 bf3d 9d04 1b3f 317a e33d f3f2 063e
00000110: 8d92 883e 8bbe f93d da38 1e3e 300d 063e
00000120: 45cb d6bd bc27 a23d 0221 9abd b5a6 373d
00000130: 1420 8fbd 2c31 af3d dbb6 8abd 5215 6abd
00000140: b7e2 4a3d fc86 c13d a121 633d c526 04bc
00000150: f0fd 443d f1ee 823d 7fe0 043d 1a2b 9e3d
00000160: fea2 023e fedc 23bd 4400 633b 1c1d 723b
00000170: e309 b7bb 5a52 003d 3b2d a83c 7426 4cbd
00000180: b866 b83d bf1c 233d 48b2 e43d 2408 c43d
00000190: 06e5 d23d d4f1 8a3d f1a1 c63d c83c fdbc
000001a0: 5644 9d3d 1280 53bc b068 5ebd 4bce 913d
000001b0: 7624 9bbd 62cc a1bc 2e7f bd3c 3b9d 003d
000001c0: a320 173e 38c9 f03c 640a b33d 52a1 4f3b
000001d0: 5c61 ae3c 3506 c43c 7b08 963d 43cd 0a3d
000001e0: a944 2b3e 88c6 70bd 20f8 fe3d 1157 073e
000001f0: c712 393e 8bf2 b43c 5bc9 aa3d 0bc6 5ebd
00000200: be91 723d 5464 4fbc 8be7 c339 5e25 45bd
00000210: c6e3 8fbd 15f1 e53d 7b01 babc 0b7b 293e
00000220: da97 f63c 2cd8 5ebd 6754 0dbe dc16 a0bd
00000230: 6f2b 4bbd 02b6 2fbe 5fe0 7fbd b1f8 093d
00000240: ab9e 893d 1465 a53d 4cd0 41bd d385 d83d
00000250: e659 bbbd 4320 1f3e 8549 083e bb3d 033d
00000260: 431f a53c 802d 4bbd b8ae 63bd e681 9fbd
00000270: a29b 173e 2ce8 163e db68 6f3d e222 183d
00000280: a919 de3c 1b87 cfbd f34e 8d3d 8e97 9e3d
00000290: fa3c 79bc 641d 223d ca91 2b3e 443c 38bd
000002a0: 322e adba 028a f4bc 2d1d b7bc 5b76 38bb
000002b0: 6709 74bc 471e ce3d 2228 103e 7f77 283e
000002c0: 90df 7c3e b14a 853e fe50 843e d7ab ab3e
000002d0: d4fb 6e3d 5a1d 69bc 5426 283e f7f5 74bc
000002e0: f64d 323e 628e e33d ba69 763c a06f 523b
000002f0: 3601 b03d 2ff7 be3d 32f0 71bd 9e1a dcbd
00000300: 2250 143e 562d 163e 028f 093a e699 62bd
00000310: f93a f03c e34a 27bd 29a7 32bd 08f9 273e
00000320: 3f06 5cbd 1868 34bd ddb4 043e 4543 1d3c
00000330: 7c79 213d 3e94 083e 8a59 9d3d 9192 c53d
00000340: 09c0 97bb 11a4 193d 1df4 b93d 93a9 58bd
00000350: 49ab 833d b975 103e 2c43 22bd fc58 7e3d
00000360: dfb8 f43d 8d1e c43d 5ec0 d33d 3cd0 bbbb
00000370: 575b 203e 3d7b 203e dff5 833e 4e1b 483e
00000380: 14c1 403e 9735 7a3e 64fb f63d 893a b03e
00000390: a5c6 6a3d c3bd 663d 5320 48bd b4cb 833d
000003a0: e944 ce3d f538 cc3d 4bec 803d 68e5 8d3d
000003b0: ad32 973d a315 013e 4f84 213d cdea 63bd
000003c0: ec79 9a3c 5395 113e 76c6 773c cebb beba
000003d0: 8d34 83bd 1c56 7a3d c3e0 103e b8bb 1a3e
000003e0: bf09 153e 541e ebba c883 99b9 5a9a 673e
000003f0: d6b4 2d3e 50ce e83c 5cfb 313c 0e95 d73c
-0.015997201 0.045500617 -0.056627296 0.11335206 -0.04306583 -0.009515598 0.036092985 -0.015756905
0.09286023 -0.04020446 0.11733012 -0.05412204 0.1074262 0.14110251 0.072800264 0.062304467
-0.082882784 0.14465505 0.076183386 0.10117892 -0.010297887 0.17827232 0.039026998 -0.010914749
0.09413388 0.0019198467 0.06898338 0.075304754 0.100335315 -0.036381125 -0.024252154 0.00086573145
0.0688919 0.066014126 -0.04266606 -0.008882623 0.113216296 0.06161653 0.18746331 0.1240227
-0.005722152 0.306604 0.06931273 0.10475674 0.06470659 0.111496665 0.033872847 -0.06294965
0.09508193 0.0698678 0.10430227 0.16882923 0.14287391 0.2622002 -0.04594296 -0.09359138
0.012752766 0.15538199 -0.032168422 0.059117943 0.2548141 0.06829178 0.3049051 0.07315368
0.09373267 0.60553914 0.111072905 0.13178615 0.2667431 0.12194546 0.15451375 0.13090968
-0.10487989 0.07917735 -0.07525827 0.04483672 -0.0698854 0.08554301 -0.06773158 -0.05714924
0.04953262 0.09449574 0.055451993 -0.008065884 0.048093736 0.06393231 0.03244066 0.07723065
0.12757489 -0.040005676 0.003463761 0.003694362 -0.0055858954 0.031328537 0.02052938 -0.04984136
0.09003967 0.039822336 0.11166817 0.09571865 0.10297589 0.06784406 0.096988566 -0.030912772
0.0767905 -0.012908952 -0.054299057 0.071194254 -0.07575314 -0.019750778 0.023131933 0.031399947
0.14758544 0.029392824 0.08742216 0.0031681848 0.021286659 0.023928741 0.07325836 0.03388716
0.1672541 -0.058783084 0.1244967 0.13216807 0.18073569 0.02208831 0.08339187 -0.054388087
0.05922102 -0.012658197 0.0003736581 -0.04813134 -0.07025866 0.112276234 -0.022705784 0.16550843
0.030101705 -0.054405376 -0.13801728 -0.0781686 -0.04960197 -0.17159274 -0.062469836 0.033684436
0.06719717 0.0807592 -0.047317788 0.105724 -0.09148006 0.1553965 0.13309295 0.032041293
0.020156508 -0.04960394 -0.055586547 -0.07788448 0.14805463 0.14737004 0.058449607 0.03714264
0.027111845 -0.10133191 0.06899824 0.077437505 -0.015212292 0.03957881 0.16754833 -0.04497935
-0.001321262 -0.029850964 -0.02235278 -0.0028146717 -0.01489482 0.10064369 0.1407781 0.16451834
0.24694657 0.26033548 0.25843042 0.3352954 0.05834563 -0.014228189 0.16420871 -0.014951221
0.17412552 0.11111142 0.015039856 0.003210999 0.08593981 0.0932449 -0.05906696 -0.10747264
0.14483693 0.14665732 0.0005247445 -0.05532255 0.029324995 -0.040842902 -0.043616448 0.16403592
-0.053716894 -0.044044584 0.12959619 0.009598558 0.039422497 0.133378 0.07683094 0.09647096
-0.0046310467 0.03750998 0.09079764 -0.052896094 0.064291544 0.14107408 -0.03961484 0.06209658
0.11949324 0.095761396 0.103394255 -0.0057316106 0.15659843 0.15672012 0.25773522 0.19541666
0.18823653 0.24434505 0.12059668 0.3441966 0.05731835 0.056333315 -0.04885895 0.06435338
0.10071737 0.09971801 0.06295069 0.069285214 0.073827125 0.1260591 0.03943282 -0.055643845
0.018856965 0.14217119 0.015123 -0.001455182 -0.06406508 0.061117277 0.1414824 0.15110672
0.14554499 -0.0017938116 -0.0002928062 0.22617474 0.16963515 0.02841869 0.010863151 0.026316192

lstm.weight_hh_l0 f4 [256, 64]
00000000: 851c df3d 41d7 583d 2b80 1abd 79a5 183e
00000010: ff16 70bd db40 c8bd d719 283e 45a0 bd3c
00000020: 81a4 b83c 6c68 483c e3b1 1ebb 10bf 5bbe
00000030: 5380 313c 69fb c53a 96cf d0bd df90 e7bd
00000040: bb00 d6bc e5b5 d53d c634 903d 841a 1a3d
00000050: 82ac 87bd 5ce6 82bd 2a9f 2e3c 101c 65bd
00000060: 5e38 443d 6d22 89bd 70c2 d73d c547 b6bc
00000070: c535 f03d 853e 96bd 09a9 df3c 7c1c 53bb
00000080: 7b2b c8bd fd1e b43d 70fd 233d 9561 a1bd
00000090: 78e5 aabd 705c 85bc 0998 583d 8e4f 113d
000000a0: 6f7e cb3d 4145 6a3b e9fa 62bd c266 06be
000000b0: 65bb e6bd e281 7cbd b11a 623c 12c6 e5bd
000000c0: f538 ca3d 8b38 ee3c b0ed 97bd 4fbf 16be
000000d0: 9726 f7bb 6a95 e1bd 5469 6a3d ff65 5bbd
000000e0: 55a7 ff3d ef6d 073d fe7c e63d 2e46 66bd
000000f0: 0d8a e73d 02d6 1b3d 0ecf 67bd 1706 c73d
00000100: 6af2 903d 2cb7 92bd 12ee b73d c95b babc
00000110: 7da9 f8bd b271 9e3c 0a59 b33d f299 99bc
00000120: cbfc 17bd 5227 8f3d bcc2 14bd c7a0 8bbd
00000130: 274c f53d 8a24 cd3a 9e68 e9bd 4fbe b1bd
00000140: 0142 d93d 409e ee3d a74d 533b 638b 96bd
00000150: ccac 96bd 9d12 c63d 235a bcbb a7d7 12be
00000160: 0e88 75bd 599e 25bd 279c 97bc 0fa3 aabd
00000170: 0e5f d1bd fa45 95bd 77dc 563d d13f 97bd
00000180: a329 453d 0ee9 dcbd 541c 043e 3b40 9f3d
00000190: e691 033e c66d cbbd d33b 6bbd ddbb e13d
000001a0: b22b b9bd ec9c 12be 2459 8b3d 8d97 72bd
000001b0: 9909 bc3d 88fe 55bd dcd9 4a3d 88ee ca3d
000001c0: 4918 8b3d 0bb4 a03d 7237 26bc 7088 e9bd
000001d0: 3b99 0c3d dac3 c83c ba5d 903d b40d 9bbb
000001e0: f541 973b 1c39 ba3d 0a04 d9bc 7dde 95bc
000001f0: ce4b fcbd c7d5 f33d c370 87bd 0cf3 c53d
00000200: 92cd a9bc 9219 a5bd b5c2 97bd a462 02be
00000210: 7e29 5bbc 40d9 303d 8d1f 9a3d 1442 423d
00000220: 4689 3b3d cc5f 4a3d 459e 883d ddb3 89bc
00000230: b177 063e 0388 be3c 4124 a7bd 671c b8bd
00000240: 9cd1 5c3d cf6f 313d 2a96 a1bd eaf2 f73d
00000250: 71f2 45bd a29d 453d 3855 1b3d dcd4 263e
00000260: a57b 2c3d 14eb dcbd fd3e dcbc daee 003d
00000270: a58f ba3d 9203 0f3e ff35 84bd e3a0 b0bb
00000280: 89ea cdbc 7bc0 63bd 80da 483d 0934 10bd
00000290: d159 8d3d 27a8 f2bd 7344 5fbd 1b13 a93c
000002a0: 05fd aabc c220 78bd 1614 42bd 1cd5 9abd
000002b0: e37f 05be 1c7c 923b 3423 5fbc 6281 e3bd
000002c0: 171c e3bc 778c 60bd 63ab bebd d8cd b53c
000002d0: 5ee3 923c b53f 353c 8685 a53c db56 b7bc
000002e0: 891f 7bbd 1c91 e43d b37a ca3d 3185 dcbd
000002f0: 6d27 9e3b 24bd b23d d307 febd 341a 08be
00000300: 3772 133e a0a5 bebc 79fa 0bbc dce7 8f3d
00000310: 7463 873c 5c6d 1bbd d786 2b3d a5b7 533b
00000320: 3ba7 f4bd 89c0 9b3d 8d85 15be ea1c 80be
00000330: dce1 bd3e f1c8 8cbd fe45 37bd 7e54 643d
00000340: ac39 c23d ed71 b8bd 288d ae3d db8f babd
00000350: 4c60 bf3d d287 1fbc ba44 ba3d 5940 193c
00000360: 37c0 fcbc ffbe efbb d262 bf3d d33c e6bc
00000370: 37d2 efbd ba6d 13bd 8d34 813d f6ce d1bb
00000380: e00e 5b3e 8388 82bc e221 503d 1665 e03d
00000390: d6f6 843d 108d 6c3d 0bdc 34bd 567e 6a3d
000003a0: 1d67 993d 1c37 7ebd 7ff5 79bd 6538 01bd
000003b0: e677 d63a 9114 acbc fe1d 27be 1dbd ed3d
000003c0: 4199 f93d 4639 e6bd 6d46 c2bd 6ecc ebba
000003d0: 1458 f93d 7cf8 b6bd 7127 933d 4bbf 393d
000003e0: a861 fc3c 9568 84bd 9ee4 9b3d d589 ba3c
000003f0: d3a4 82bd 439e 97bd 113e d1bc 6a33 9c3d
0.108941115 0.052939657 -0.037719887 0.14906873 -0.05861568 -0.09777995 0.16416107 0.023147712
0.02253938 0.012231927 -0.0024214915 -0.21459603 0.0108338175 0.0015104833 -0.10195844 -0.11306929
-0.026123395 0.10435084 0.07041316 0.037622944 -0.066247 -0.06391594 0.010658065 -0.055934966
0.04790532 -0.06696019 0.10535133 -0.02225102 0.11729006 -0.073361434 0.027302282 -0.0032213023
-0.09773918 0.08794973 0.04003662 -0.078799404 -0.08344549 -0.01627943 0.052879367 0.03547626
0.09936225 0.0035746845 -0.055415068 -0.13125136 -0.112662114 -0.061647303 0.013800309 -0.112194195
0.09874145 0.029079696 -0.07418382 -0.14721416 -0.007542442 -0.110148266 0.057229355 -0.053564068
0.12483088 0.033063825 0.11254309 -0.056219272 0.11305628 0.03804589 -0.056593947 0.097179584
0.07077487 -0.071638435 0.08980955 -0.022748845 -0.12141702 0.019341324 0.08757217 -0.018750165
-0.037106317 0.06989922 -0.036318526 -0.06817775 0.119774155 0.0015651148 -0.11396907 -0.086788766
0.10608292 0.116512775 0.003224233 -0.07350805 -0.07357177 0.09671519 -0.00574805 -0.14340077
-0.059944205 -0.040434215 -0.018507076 -0.08331882 -0.10223208 -0.072887376 0.052456345 -0.07385219
0.04813541 -0.10786639 0.12901431 0.07775923 0.12848625 -0.09933047 -0.0574301 0.1102216
-0.09041537 -0.14317673 0.068041116 -0.05922656 0.09181518 -0.052244693 0.049524173 0.099087775
0.067917414 0.078468405 -0.010145055 -0.114029765 0.03432582 0.024507452 0.07049127 -0.004731858
0.004616017 0.09092924 -0.026491184 -0.018294567 -0.12319146 0.11906009 -0.066133045 0.09665498
-0.020727906 -0.08061518 -0.07410184 -0.12732941 -0.013376592 0.043175936 0.07525549 0.0474263
0.04578521 0.049407765 0.066708125 -0.016809398 0.13131596 0.023258215 -0.08161212 -0.08989792
0.053910837 0.04331952 -0.0788997 0.12106879 -0.048326913 0.048246033 0.037923068 0.16292137
0.042110104 -0.10787025 -0.026885504 0.031477787 0.09109429 0.13966206 -0.064556114 -0.005390273
-0.02513625 -0.055603486 0.049036503 -0.035205875 0.06901897 -0.11848479 -0.054508638 0.020638993
-0.020872602 -0.060578115 -0.047382437 -0.07560179 -0.13037066 0.0044703614 -0.013619233 -0.11108662
-0.027723355 -0.054821458 -0.09310033 0.02219288 0.017930683 0.011062552 0.02020527 -0.022380283
-0.06130937 0.1116049 0.09886684 -0.10767592 0.0048264773 0.08727482 -0.12403836 -0.13291246
0.14399038 -0.023272336 -0.008543604 0.070266455 0.016526915 -0.03794609 0.04187664 0.0032305506
-0.11945959 0.076050825 -0.14601727 -0.2502206 0.3708638 -0.06874264 -0.044744484 0.05574464
0.09483656 -0.090061046 0.08523017 -0.091094695 0.09344539 -0.009736972 0.0909514 0.009353721
-0.030853374 -0.0073164697 0.0934502 -0.028105175 -0.11710017 -0.035993315 0.063088514 -0.0064028455
0.21392393 -0.015934234 0.050813563 0.109567806 0.06492393 0.057751715 -0.04415516 0.05724939
0.074903704 -0.062064275 -0.06102514 -0.031547923 0.0016362637 -0.0210059 -0.16320035 0.11608336
0.12187434 -0.11241393 -0.09486089 -0.0017990002 0.12175003 -0.089341134 0.07185257 0.045348447
0.030808285 -0.0646526 0.07611965 0.022770802 -0.06379094 -0.07403233 -0.02554229 0.07626994

lstm.bias_ih_l0 f4 [256]
00000000: ede6 e13c 9ce2 75bd 4bfc d63d 0966 1a3d
00000010: 12f9 633d 233b ca3b 4476 8d3d dad2 f3bd
00000020: 9850 0d3e c591 ef3d 46ab 653e abe9 923e
00000030: 9070 983d 4362 db3d bd76 f83d 222c 193d
00000040: 07e0 c23d 801e e43c 5bc5 f9bd dc6c bc3c
00000050: f7d4 0abd bab5 063e a5d3 67bd 64b3 443d
00000060: fadb 1d3d 6053 7ebd 8827 b3bd 6ed7 3e3d
00000070: f3a3 053e a27d b33e 6251 dd3c 4918 123d
00000080: b74b 49bd 9789 3b3c 57c7 4c3d ff9d a2bd
00000090: ccfb 10bd 1132 be3e 5d2c b1bd f2d7 e2bd
000000a0: fc3f 3dbc 739b a13a 1735 d73d 6bec e23c
000000b0: b54f ce3c f7fd 013d fc98 9abd 725b 9b3b
000000c0: d444 d9bc a27f 8ebc 65f6 6cbd a11b 583e
000000d0: f583 79bd 1e50 be3d da07 973d e1a8 4cbd
000000e0: 8eeb 873e 030b a23c f8b3 9e3d 55a0 ac3d
000000f0: 05f1 0a3d c41a 81bd 54ea 7e3d 5c2d 00be
00000100: 290f 61bd eed9 be3d 30dc b43d 4bf6 473d
00000110: 47a6 263c 8a1e 96bd f301 5fbd 0316 ea3d
00000120: 7289 8abd 2f43 b7bd 6908 19be 6f50 dbbb
00000130: aee8 edbc 2a32 a1bd b1d2 d9bd e1ca a5bd
00000140: cd8a 8d3c 4a95 a83c 700e 50bd 8bad 82bd
00000150: ffc0 c93d 0899 e13d d4c9 8bbc d1ff eebc
00000160: 1f66 763c d8c0 e13d ecf4 883d 9afc 68bc
00000170: 3054 4fbd 5733 2dbe a0cd 7dbd 20c2 c2bc
00000180: 9731 09be 8270 ffbd 716e 2f3d 9855 e0bd
00000190: bbba dbbd a053 62bb 527e c4bd 8976 fd3b
000001a0: d7ec 04bd 435e b8bd ce72 12bd 748c 4dbd
000001b0: 79a8 c83d cf02 f1bd 5f00 99bd 207e 4bbd
000001c0: d774 93bc f268 fbbd 0f0e a83d a63c febd
000001d0: 96e8 98bc 37d7 ecbd c5bb 85bd 919a 623d
000001e0: 6a3b 19be 4f26 363d dbf5 ecbc 78a0 08bd
000001f0: 4b97 d7bd c00b 32bc 8465 bd3d e9ac 2b3d
00000200: ca90 86bd 2114 eabc e9f0 003e b3cf 603c
00000210: 2cf0 4a3c ddae 8dbd 807e c5bd a9a9 b6bd
00000220: ea57 7e3c b22c 6abd 9403 003d fd5a 803d
00000230: 552a 8e3d b9dd a3bd f626 b33d 30bb c13d
00000240: 066a ebbc f609 32bd 8ffa 153d 239f 80bd
00000250: 3f7b dbbd 63fa ff3c 2627 b23c 0904 ad3c
00000260: b6d2 31bc 3cdf a7bd fdb0 e7ba 0784 f7bc
00000270: 0008 7cbc a665 e1bc da64 7c3c b86e adbc
00000280: 731c 893d 1ac5 933d 30bc 42bb 946d 7c3d
00000290: 2987 7ebd ca23 d23d f385 85bd 1179 21bd
000002a0: 5e9c c0bc d14a d63c e4e2 ef3d 8c0c 27bd
000002b0: 11c6 d0bd 6a05 5fbd b1f8 2e3d 39c0 123d
000002c0: 3db6 9b3c 51a3 3a3c 5704 dabd ace8 723d
000002d0: b547 ed3c 296c b3bd 81ab a33d fec8 cabd
000002e0: 8bd1 64bc 4330 65bd dfb0 0a3d 2af2 8b3c
000002f0: 50ca 013d 89cd 99bc 49ea 593d 5bba 773b
00000300: 8e62 90bd 6cc0 19bd c770 ccbc 303f 1b3b
00000310: e49e cc3d d45b 363d c008 7d3e 8526 f93d
00000320: f064 1e3c e972 143d 8506 a93e be63 893e
00000330: 6352 533d 5fee 6dbd 4290 043d 32af 913d
00000340: e4e3 e43d 38d0 ff3c 76af eb3d 0945 93bd
00000350: 92e7 85bc 4dd5 3abc 3043 2f3c 4666 113d
00000360: e3ff eb3d 4072 a6bb 04ce 83bd 42dc 5bbd
00000370: bdfc 62bc ad19 4b3e dce7 053e 6232 45bd
00000380: e613 d73c 241c bebd 0102 c7bd b0ad 3fbd
00000390: 14da c83d faf0 b43e b642 a23d 7cc0 dd3d
000003a0: cf7e 45bc 3d9f a83d 8b02 893d 3111 823d
000003b0: 8c43 12bc 7b58 f63d 7de4 a23d 93ad eb3d
000003c0: 725e bebc ce3a c4bd 225b 053e 13f1 7c3d
000003d0: e4ac 3b3d 492c b43d a485 e7bc ef4f 92ba
000003e0: 7e5f 383e 8b68 f33d eb9c 133e c761 843d
000003f0: 9090 71bd 1914 72bd f2fc 7c3d c702 973c
0.027575934 -0.060030565 0.1049734 0.037694965 0.055657454 0.0061716004 0.06907323 -0.11905451
0.13800275 0.11697725 0.22428617 0.286939 0.074433446 0.10712101 0.121320225 0.037395604
0.09515386 0.027846575 -0.12195846 0.023001127 -0.033894505 0.1315526 -0.056598324 0.048022643
0.038539864 -0.06209123 -0.08747774 0.04659217 0.13050823 0.35056788 0.027016345 0.03566769
-0.049144473 0.011446378 0.049994793 -0.079402916 -0.035396382 0.37147573 -0.0865104 -0.110763445
-0.0115509 0.0012329653 0.10508173 0.027700623 0.025184492 0.03173634 -0.07548711 0.0047411257
-0.026522078 -0.017394844 -0.057852168 0.2110429 -0.06091686 0.09292625 0.073745444 -0.049965743
0.265469 0.019780641 0.0774917 0.084290184 0.03392126 -0.06303933 0.06223519 -0.12517303
-0.0549461 0.093189105 0.0883106 0.048818868 0.01017148 -0.073300436 -0.05444522 0.1142998
-0.06764497 -0.08948361 -0.14944614 -0.006692938 -0.029041614 -0.07870896 -0.10635889 -0.08095337
0.0172781 0.020579 -0.05079502 -0.06380757 0.09851264 0.110155165 -0.017064013 -0.029174717
0.015038996 0.1102311 0.0668734 -0.014220381 -0.050617397 -0.16914116 -0.061963677 -0.023774207
-0.13397823 -0.12472631 0.042829935 -0.10953826 -0.107289754 -0.0034534708 -0.09594406 0.0077350778
-0.03245243 -0.09002354 -0.035754018 -0.050182775 0.097977586 -0.11768114 -0.07470774 -0.04968083
-0.01800005 -0.12275876 0.082058065 -0.124139115 -0.018665593 -0.115644865 -0.06529955 0.055323187
-0.14964071 0.044470128 -0.028925827 -0.03335616 -0.10526904 -0.010867059 0.09247878 0.041912947
-0.06570585 -0.028574051 0.125919 0.013721394 0.012386363 -0.06918118 -0.096432686 -0.08919079
0.01552389 -0.05717153 0.031253412 0.06267355 0.06941668 -0.080012746 0.087476656 0.09459531
-0.02873708 -0.04346653 0.036615904 -0.06280353 -0.10716867 0.031247323 0.021747183 0.021120088
-0.01085346 -0.081968755 -0.0017676648 -0.030214323 -0.015382767 -0.02751429 0.015404904 -0.021170959
0.066948794 0.072153285 -0.002971422 0.06162794 -0.062140618 0.102607325 -0.065196894 -0.0394221
-0.023512062 0.026158722 0.11713198 -0.04078345 -0.10194028 -0.054448523 0.04271764 0.03582785
0.019007796 0.011391477 -0.10645359 0.059303924 0.028964857 -0.08760864 0.07991696 -0.099016175
-0.013965975 -0.05595423 0.033860084 0.017083246 0.03168708 -0.018774765 0.053201947 0.0037800285
-0.07050048 -0.037537023 -0.02495612 0.0023688786 0.099912435 0.044521168 0.24710369 0.1216555
0.00966762 0.0362424 0.33012787 0.2683391 0.051592242 -0.058088657 0.032364137 0.07113494
0.11176279 0.031227216 0.11508076 -0.07190902 -0.016345773 -0.011403394 0.010697171 0.035497926
0.11523416 -0.0050795376 -0.06435779 -0.05367685 -0.013854203 0.19834013 0.13076729 -0.048143752
0.026254606 -0.09282711 -0.09717179 -0.0467965 0.0980722 0.353401 0.0792288 0.10827729
-0.012054159 0.08233497 0.06689938 0.06350935 -0.008927237 0.12028595 0.07953737 0.11507716
-0.023238394 -0.095815286 0.13023046 0.061753344 0.04581918 0.08797509 -0.028261967 -0.0011162738
0.18005177 0.11885174 0.14415328 0.06463962 -0.058975756 -0.059101198 0.061764665 0.018433942

lstm.bias_hh_l0 f4 [256]
00000000: ca30 dabd e867 5f3d c368 00bd a21e f23d
00000010: 932f f2bb e764 8cbd 5178 343e 509a 843d
00000020: 3075 e23d 8604 8cbd 3b8d 3e3e f74e 5b3e
00000030: d4cc bdbd b80a d1bc f732 a33c a04c 0abd
00000040: 134d 36bd 48dd 42bd ca4a c6bc f92b 583d
00000050: 886f 983b 0d1d 41bd d24f 07bd 42ad bdbd
00000060: 7df4 e63c d994 dabd 7472 cdbd 49f8 0e3e
00000070: d5ce f1bc ca9c 683e d980 233e 2742 77bd
00000080: 3c93 aebd 3654 d33d 4b52 1e3d 5e1a 1d3c
00000090: 6b2e 98bc 7be9 6d3e 74c2 78bd e227 f63d
000000a0: e6da 44bd 42ea 923d cf4b 2abc d6a8 fe3c
000000b0: 6d69 073e 5c22 013e 9c3e b2bc 45ff a73d
000000c0: bebb 25bd 0091 ec3d ab4f 143e 5fcd 093d
000000d0: 5267 b23c 900b 08be 84c3 c3bd 2ace dbbd
000000e0: 91ed 313e 5c52 043d bd77 bf3d 7a3e 713d
000000f0: dbc9 3e3c fbb3 203c 1943 b9bc f605 a63d
00000100: 35c1 013d 0413 f2bb 3fa4 0fbe c103 35bc
00000110: 640a b13d 28b0 fcba d5fe d2bd aead 303c
00000120: 3183 9b3b 8e0d 973c 5996 27be b553 183d
00000130: 37bc 06be 19d9 d7bc bffe 613c c53c a7bc
00000140: 2b13 a4bc 768f a9bc bb45 bd3c a927 24bd
00000150: 2b22 7dbd aa89 8bbd 9a99 a6bc 6460 88bd
00000160: 66da 2f3d 8a98 c03c 7435 e93c 3c28 ef3d
00000170: 9249 013e 3d4e 14be d9e4 36bd b113 b0bd
00000180: d96d 6a3d 7667 993d 2484 993d 0d02 09be
00000190: 71a5 493d 4d34 4cbd 5200 05bd dfc5 82bd
000001a0: efef 89bc ed12 4abd dd3d d03d 4fbc d3bd
000001b0: fbef 30bd a4ea fdbc 0c33 473d b36d ffbc
000001c0: 078b 1dbd 5444 d23d 713f f13d e9fc 8cbd
000001d0: f4d6 c4bd 479c 93bd 11af 2f3d 8d21 1ebd
000001e0: 4342 45be 6a5e 923d 4684 97bd 2a32 4e3d
000001f0: 6aa5 163d fa2b 3e3c 102d cb3d 9539 9abd
00000200: 980d c23d b276 65bc 45b8 e5bc f606 de3d
00000210: 026e 3ebd 768c 063d 207c 1b3d 6962 8bbd
00000220: b7d2 bf3d 49ce 9d3d 5f66 2dbc b65d ffbc
00000230: 0f3f 023d a1d8 503d 6f98 743d 60c1 973d
00000240: 08fc eb3c 9f77 f53d efdf 0bbd 928a 33bd
00000250: f856 263c b939 bebd 07b1 253c 9b43 903d
00000260: 7ed0 a73d e000 dbbd 74fa cfbd bb64 81bd
00000270: 2e73 8fbd 7fbc efbd 2d9f adbd 9140 9bbd
00000280: 9fc0 ef3d 8c22 52bd 3cc3 d6bd c033 3dbb
00000290: 4792 63bd 3eb5 d43d 6512 d53d 1a38 91bd
000002a0: 1ed7 91bc 3223 bbbd a15e 343d 2de5 d7bd
000002b0: affd 8cbd be9a 083e dfb6 20bd 694a af3d
000002c0: 9bcf 853c abd2 20bd bb86 e63d 816d c5bc
000002d0: 958e e9ba 1fd3 d43d 1e80 55bd 90b0 f13d
000002e0: 4231 8f3c ed66 403d 831a 0dbd 3da1 8c3d
000002f0: 7a28 9f3d 983e 673d f115 08bc 997c 1b3c
00000300: 39f7 bb3d 4c5c 493d eb20 e1bc 8fd6 8f3d
00000310: f215 babd de74 8bbc f49b 7c3e 4b41 213d
00000320: 3591 23bb 1804 babd 0818 6c3e e362 863e
00000330: 0534 79bd a057 a73d 6650 d63d 0ace ec3d
00000340: 6e4f dc3d 9226 5f3d f40f 9a3d 71c0 003d
00000350: 927c 143e af48 55bd 0e15 e0bd a68f e33d
00000360: a1f5 bf3d df52 bf3d 6a6c eebd ab78 22bc
00000370: 8cff dcbc 23d0 403e c957 e43d 0f2e c5bd
00000380: 6574 c3bd 4fce b63c e7fb ec3c 0b2b 27bd
00000390: a0d2 963d b8ae b03e 61e3 26bd 21c6 b73b
000003a0: 30f5 c2bd f7d9 3a3e 0709 823d 607b 36bc
000003b0: f367 473d d535 f33d e99e d13d 190a 9ebd
000003c0: 5313 453d b243 ca3d db17 ba3b 551e 9c3d
000003d0: 9c60 1bbd d3bd f3bd b0d9 e63d cf18 d7bd
000003e0: 07fc 5c3e bbab 4a3d 7b15 103e 7681 573d
000003f0: 4fad 64bc 5650 cebd c8ad b53c 915b afbd
-0.10653837 0.054542452 -0.03134991 0.11822249 -0.007390925 -0.06855183 0.17624022 0.06474745
0.11057508 -0.068368 0.18608563 0.21416841 -0.092675835 -0.025517806 0.019921763 -0.03376448
-0.044507097 -0.04757431 -0.024205584 0.05277631 0.0046519674 -0.047146846 -0.033035107 -0.09261562
0.028192753 -0.10672922 -0.10031596 0.13961901 -0.02951757 0.2271606 0.1596712 -0.060365822
-0.085241765 0.10318796 0.0386527 0.009588806 -0.018576821 0.23233597 -0.06073232 0.12019326
-0.04806032 0.071735874 -0.010394051 0.031086367 0.1322381 0.12610763 -0.02175837 0.08202986
-0.040462248 0.11551094 0.14483516 0.033643123 0.021777783 -0.1328566 -0.09558776 -0.10732682
0.1737578 0.032305107 0.0934901 0.058897473 0.011644806 0.009808536 -0.022615002 0.08106606
0.031678397 -0.0073875207 -0.14027499 -0.011048258 0.0864456 -0.0019278573 -0.103025116 0.010783596
0.004745864 0.01843908 -0.16365947 0.037189204 -0.13157736 -0.026348637 0.013793646 -0.02041472
-0.020028671 -0.02069829 0.02310454 -0.040076885 -0.061800163 -0.06813367 -0.020336915 -0.0665901
0.04293289 0.023510236 0.028467871 0.11677596 0.12625721 -0.1448297 -0.04465184 -0.08597506
0.057233665 0.07490437 0.07495907 -0.13379689 0.049230043 -0.049854565 -0.03247101 -0.06385397
-0.016838042 -0.049334455 0.101680495 -0.103386514 -0.043197613 -0.030995674 0.048632666 -0.031180238
-0.038462665 0.10266939 0.117796786 -0.06884176 -0.096113116 -0.07207542 0.042891566 -0.038606215
-0.19263558 0.07146914 -0.07398276 0.05034081 0.036778845 0.0116071645 0.09920704 -0.07530514
0.09475249 -0.01400535 -0.028041968 0.108411714 -0.04649163 0.032848798 0.03796017 -0.068058796
0.093663625 0.077053614 -0.010583489 -0.031172615 0.03179842 0.050987843 0.059715685 0.0740993
0.028806701 0.119857065 -0.034149107 -0.043833323 0.010152571 -0.092883535 0.010113007 0.07044145
0.081940636 -0.10693526 -0.10155192 -0.06318041 -0.07004391 -0.11705875 -0.08477626 -0.075806744
0.117066614 -0.051302478 -0.10486457 -0.0028869957 -0.055559423 0.10386132 0.10403899 -0.07090779
-0.017802771 -0.09137572 0.044035558 -0.10541759 -0.06884324 0.1334028 -0.0392369 0.085591145
0.016334346 -0.03926341 0.112561665 -0.024100067 -0.0017818982 0.10391831 -0.052124135 0.11801255
0.017479543 0.046973158 -0.03444911 0.06866691 0.07771392 0.05645618 -0.0083060125 0.009490156
0.09178013 0.049160287 -0.027481517 0.07023346 -0.09086217 -0.0170235 0.24668866 0.03936891
-0.0024958376 -0.09082812 0.23056042 0.2624732 -0.060840625 0.0817101 0.104645535 0.11562736
0.107573375 0.054480143 0.07522574 0.031433526 0.14500645 -0.05207127 -0.10941516 0.11111383
0.09373022 0.09341978 -0.11641772 -0.009916465 -0.026977323 0.18829398 0.11149556 -0.096279256
-0.09543685 0.022315172 0.02892871 -0.040812533 0.07364392 0.345083 -0.04074419 0.0056083356
-0.09519422 0.1824721 0.06349378 -0.011137813 0.048683118 0.11875502 0.10235388 -0.0771677
0.048114132 0.09876193 0.0056791133 0.07622973 -0.03793393 -0.119014405 0.11271989 -0.10502779
0.21580516 0.04948018 0.14070694 0.052613698 -0.013957336 -0.100739166 0.022177592 -0.08562387

lstm.weight_ih_l1 f4 [256, 64]
00000000: a87e 8bbd 19a7 8fbd 5a30 aebd 4bee 0bbe
00000010: e56a 8e3c 9be2 053c 70a4 cf3d ef07 01be
00000020: e162 e6bd 015c abbd 675f dabd be58 e2bd
00000030: 9382 bc3d e59b 67bd 64ce f73c b53e 36bd
00000040: 26cc 203d cd23 a0bc f716 e4bd ae18 0abe
00000050: 8704 fabc 9f09 04be 7011 153e 3c49 803c
00000060: 643a f0bd c2aa 833d de8c bd3c 9288 6aba
00000070: e63a e1bb b5f1 843c 132f 13bd 4c33 f0bd
00000080: a0ae 09bd 5d15 a93d ac19 90bd f4d9 b7bd
00000090: 5bd3 223e 3e64 4dbd 6217 0dbe f34a 993d
000000a0: 1330 1f3e 3445 43be 2a72 023d a72f 5cbd
000000b0: bef1 d2bd 7ada cdbd f50b bcbd 7384 e3bc
000000c0: 738a 983d 9a4d 8dbd 1943 b8bc cb53 52bc
000000d0: 42ac cd3d 24dc 023e d376 da3c 0867 bbbd
000000e0: 2310 8e3d 0c06 de3d 90d8 123d 5ef6 42bd
000000f0: 117e 3cbe 72a1 9e3d d00d 393d 0aaf 38bb
00000100: 2c7b e9bd 6f7a 98bb 0681 08bc 36d8 993d
00000110: 54ba b33d f984 b7bd 81bd c83d 517c 00bd
00000120: db67 93b9 acb5 d93c 252c 59bd 1351 27be
00000130: 3361 c1bd 41ed ffbd 806b 82bd c1ee 4abd
00000140: 1f11 c33c deac 933d 7aac 01bd 0c4c a83d
00000150: 9abe 6b3d 493f 883d e550 143d 7c88 83bd
00000160: 5c6b 283d 3d9d 8d3d 93ac 883d 3dbf e1bd
00000170: 0f68 1bbd 522d 1b3e 978e 5bbc 45d0 423d
00000180: 605c a0bb d90e 29bd 06a9 7e3c fb39 e6bb
00000190: a1f5 3b3d ef2f d3bd ef9d a9bc bb12 9b3b
000001a0: 388d 1a3c 6647 17bd 3b8a 80bd 6a53 fbbb
000001b0: c09d 323d 91fd bc3d 080d d1bd 15a0 61bc
000001c0: 3e48 393d f829 21bd 34c6 bf3c 14e9 053d
000001d0: 4b68 9d3b ec80 b83d b751 a6bc 6ea3 12bc
000001e0: 0049 c7bd 99fc 6e3d 2985 94bd 1017 d43d
000001f0: 469d cbbd 8ca7 cf3d 36b9 983d 5a13 11bd
00000200: 4855 4ebd 0e3b d43d 05f6 003e 15cd c5bb
00000210: 2312 ce3d a633 0cbe 0282 a0bd 7b4e 0f3e
00000220: 0600 0a3e e126 17be 4b79 91bc 73ab b83d
00000230: 78dd 92bd 8b75 85bd 8463 64bd bd39 9d3c
00000240: 1b0f 18be fa62 153c 8063 d0bc d1e9 23bd
00000250: 59d9 f5bd 97d0 06bd 7206 ebbd 80bf 3bbc
00000260: 7734 073e b6e4 01bd cf73 d53c e5bf ebbc
00000270: ea26 6b3c 61d3 d3bd 5eb4 833c 5036 44bb
00000280: 3ab6 953c e167 063c 33af 4d3d 0e76 b9bd
00000290: 739b f4bd 3a9c 233e cdbe 84bd baee 07be
000002a0: 3a3c 913d 177d bfbd 7847 c43d 681d d4bc
000002b0: 383a c23c 1b2c b33c 7c93 0a3e 6f82 c53d
000002c0: 4ab4 553c a454 61bd 44c1 f93d 8e36 753d
000002d0: 5d65 ff3c 93fa 03be 417c 03bd 0b29 823d
000002e0: 9fb5 d7bc d359 c5bb 6511 993d e0b3 babd
000002f0: 1f28 cd3d d247 24bd 283d 8d3d c110 fc3b
00000300: 1ba2 cabd c01e 69bd 60a7 8f3d 1739 07bd
00000310: f422 31bd 78a9 853c e405 9e3d bd74 4fbd
00000320: 77e3 b9bd 70aa b63d d92f 33be 7375 8bbe
00000330: 9979 80bd 2a51 983d a442 a9bd 8f5f d63d
00000340: 0754 f53d 9301 a0bc e001 8b3d b1df 2f3b
00000350: 09f0 d03d bb03 3e3d 41fb 9b3d 7cf3 70bd
00000360: 473f 5d3d b93d 213d ee8c 92bd b8bb 073e
00000370: a31b 75bd e83f 1b3e 1aad 1bbc 7f3c 0a3b
00000380: f751 63bd fb36 e2bc af16 1fbd 1b7b 46bd
00000390: b751 e93d a1b2 b8bd 3115 f8bc 8b6a 6ebb
000003a0: 9301 aebd 794c 88bd 24d6 01bd 559f a03d
000003b0: dcee bfbd acc3 02bd 5462 48bc 2955 dfbd
000003c0: a1b7 a3bd 0ee8 e9bd 097c 233d fa9b 4ebd
000003d0: 3604 783d ec0e 0bbd 585d 103d 6ac5 c2bd
000003e0: 9b60 993d c88a 9dbd afd8 86bd db39 e73d
000003f0: 90a6 4fbc 42c5 4cbd 5f61 a73d 4bd7 60bc
-0.06811267 -0.07014293 -0.08505316 -0.1366512 0.017384956 0.008171703 0.10138786 -0.12600683
-0.112493284 -0.08367158 -0.10662728 -0.110520825 0.092045926 -0.056545157 0.030249782 -0.044493396
0.03925719 -0.019548321 -0.11137193 -0.13485977 -0.030519737 -0.12894295 0.14557433 0.01565992
-0.11729887 0.06429054 0.02313846 -0.0008946742 -0.0068734763 0.016228536 -0.035933565 -0.11728534
-0.0336138 0.08256028 -0.070361465 -0.08977118 0.15900938 -0.050144427 -0.13778451 0.074849986
0.15545683 -0.19069368 0.031847157 -0.053756382 -0.10300015 -0.10051437 -0.09181968 -0.027773118
0.07448282 -0.06899567 -0.022492932 -0.012837361 0.10042621 0.1277929 0.026667988 -0.09150511
0.069366716 0.10840997 0.03585106 -0.047598235 -0.18407466 0.07745637 0.04517919 -0.0028180503
-0.11400446 -0.004653267 -0.008331543 0.07511942 0.08775774 -0.089609094 0.0980177 -0.031368557
-0.00028115403 0.026575886 -0.053020615 -0.16339521 -0.094423674 -0.124964245 -0.0636816 -0.0495441
0.023811875 0.07210706 -0.031658627 0.0821763 0.05755482 0.06652696 0.03620996 -0.06422517
0.04111801 0.069147564 0.06673541 -0.11022804 -0.037941035 0.15154007 -0.013400695 0.047561903
-0.0048938245 -0.041273925 0.015543228 -0.007025955 0.045888547 -0.10311877 -0.020705191 0.0047324575
0.009433083 -0.036933325 -0.06276365 -0.007669856 0.043607473 0.092280515 -0.10207564 -0.013771077
0.04523491 -0.039346665 0.02340994 0.032692984 0.0048036925 0.09008965 -0.020302637 -0.0089500975
-0.097307205 0.058346365 -0.07251961 0.10355961 -0.09942107 0.10139379 0.07457201 -0.035418846
-0.0503743 0.10362826 0.12593849 -0.0060364106 0.10062053 -0.13691577 -0.07837297 0.13994782
0.13476571 -0.14760925 -0.017758032 0.09017076 -0.07171148 -0.0651656 -0.055758968 0.01919257
-0.14849512 0.009117836 -0.02543807 -0.040017907 -0.120043464 -0.03291377 -0.11475839 -0.011459231
0.13203607 -0.031712256 0.026056198 -0.028778026 0.01435254 -0.10343052 0.016077217 -0.00299396
0.018275369 0.008203478 0.05021591 -0.0905572 -0.11943712 0.15977564 -0.06481705 -0.1327466
0.070915654 -0.09350031 0.09583944 -0.025892928 0.023709401 0.021871617 0.13532823 0.09644019
0.013043473 -0.05501236 0.121950656 0.05986648 0.031176263 -0.12888555 -0.03210092 0.063554846
-0.02633172 -0.006022671 0.07474021 -0.0911634 0.10017418 -0.040107556 0.0689643 0.007692427
-0.098942004 -0.05691409 0.07014346 -0.03301343 -0.043246225 0.01631616 0.07715967 -0.05064844
-0.090765886 0.08919227 -0.17498721 -0.27238044 -0.06273193 0.07437356 -0.08264664 0.10467445
0.119789176 -0.019532 0.06787467 0.0026836211 0.10202033 0.046390276 0.07616282 -0.058825955
0.054015424 0.039365504 -0.071557865 0.13255203 -0.05984081 0.15161097 -0.00950172 0.0021093187
-0.05549809 -0.027614107 -0.038839992 -0.048457246 0.11392539 -0.09018446 -0.030283542 -0.0036379423
-0.08496394 -0.06655211 -0.03169836 0.0784289 -0.09371731 -0.03192489 -0.0122304745 -0.10904915
-0.07994009 -0.11421214 0.03991321 -0.05044172 0.06055089 -0.033949777 0.03524527 -0.0951031
0.07489129 -0.07692486 -0.06584298 0.11290332 -0.012673989 -0.049992807 0.08172869 -0.013723205

lstm.weight_hh_l1 f4 [256, 64]
00000000: ec51 ec3d c599 8e3d 6d1f 15bd 8cec bfbd
00000010: 0dee 5a3d 33f9 be3c 38f0 973d 0a04 993d
00000020: 4c4f 513c 085a 5dbd db37 7cbd e401 dfbb
00000030: bf7a ae3d d488 553d e794 babd a308 1a3e
00000040: d045 753b 17fc 06be d08a e3bc 6104 833d
00000050: 9a91 6c3d 75ad 6a3d be62 9cb9 a730 36bd
00000060: ae7e 493d 6ae4 e33d a504 7abd d066 e8bd
00000070: 57e0 a93d 5638 813d 5e6b cbbc fa8a a7bc
00000080: 62bc ccbd 35bf 9a3d 8078 003d 0fbe d33c
00000090: f1b7 23bd b92e 41bd ae5d 043e 61f2 d7bc
000000a0: ac24 38bc 6ac2 dabd 69db a73c fc23 e3bc
000000b0: d33d 8bbd e507 81bd 4e7c e0bc 0bab 9fbc
000000c0: 3327 393d 2a83 87bd 38c2 b2bd 6f65 ddbd
000000d0: be48 aebd 91d2 e2bc 879a d93c 8886 9ebd
000000e0: 2032 b63d afb3 053d 37d6 26bd ed90 63bd
000000f0: c91c 543d 8fe3 d0bd 1194 8c3d 03ae c93c
00000100: a24a 84bd 9864 d2bd c007 debd 1f8b dbbd
00000110: db12 80bd e873 d9bd e785 b63c e525 c8bd
00000120: 01b6 9fbd 9c13 b7bd 0cb4 113d bd5c 94bc
00000130: c134 d03d 5fcc ce3d 7f30 7e3c 83b8 cabd
00000140: a5df dfbb 7378 dfbd 4766 6bbc 30af 853d
00000150: 3bc9 203c 035b dfbd 55bf a63d bfa5 373d
00000160: 350a 25bd 0f79 7c3d cf25 b6bc 18ba dfbc
00000170: 6630 8ebc 0fd3 523c a095 68bd beb8 c13c
00000180: e906 36bd 7f08 b5bd 63ca 6c3c 3587 bdbd
00000190: df44 8cbd de4a aa3b dc77 283c 7d97 5e3d
000001a0: 801e a03d 7433 753d dd6c cbbb 7c55 c8bd
000001b0: b321 213d 3f3b 733d 836e 09bd 6e0e c03c
000001c0: 039c 0dbd 7241 a63d 9382 9dbd 1c1a cebd
000001d0: d774 ae3d 1d57 db3c 9735 8dbb b36a 973c
000001e0: 701e 03bd 3e82 95bd 2c88 a8bc fb0f f9bc
000001f0: c5d9 0d3d 45cd c53d 6b4c 58bc fb95 05bd
00000200: 6c0a 14be 7e41 a1bd e159 9f3c c7aa 22be
00000210: 0c58 bcbd f259 d9bd 96e6 513d 5e83 e33d
00000220: 810a 1cbe 50b5 d23d 2630 223c 1e51 a5bd
00000230: 9a92 7d3c 9b47 38bd fa2b 18be c6a8 643c
00000240: 6d2f 073c 66a2 58b9 0111 aebd 9b9a 0cbe
00000250: 322e d43d bab4 b0bd ca8c 8bbd 4369 43bd
00000260: dd45 6b3c 620f f6bd 048a 8abc 1f8e 20be
00000270: 0d45 fcbd f7a2 123c d17d a23d 10f7 52bd
00000280: f184 7b3b e62b d73d 2765 253d b548 d1bd
00000290: e8d3 ad3d 656f 2bbd 7363 26bd 5cf8 24bd
000002a0: cf37 133e 8ef2 4c3c f633 ea3c 1880 a93c
000002b0: 1041 9dbd 9de5 763d 6b5d 1abc 3328 bb3d
000002c0: 49e6 79bd b3f4 abbd 74c5 113d c355 933d
000002d0: 8e6d 38bd 2382 bfbd cfc0 a5bd d6da 33bd
000002e0: 05b2 dcbd 2a48 36bd f9af 66bd cf57 0dbd
000002f0: be36 1f3e faf2 8abd 000a 633c 6728 8d3d
00000300: aa08 c1bd ec82 6bbd 0f1d 893d 9658 d5bb
00000310: 1378 593d 0052 1a3e 8ce2 bb3d b937 ae3d
00000320: 4bbc 3f3d db95 91bd 133b 783d 0df4 36bc
00000330: 7701 0a3b b378 483d 16fe 06be 1272 8bbd
00000340: 9ae6 853c 1b2d e5bd f3cb cebc 634e 8ebd
00000350: a6d7 0c3d 3f37 fa3c 54fd c63b 33c8 7fbc
00000360: ebaa 83bd 9db0 b33d 2b23 09bd 3e25 cf3d
00000370: 7b23 dcbc 3309 3bbd 5e93 9d3d 8429 f03d
00000380: 2496 e6bd e582 9bbd c41c c9bb 786b 5dbb
00000390: a40f e13d b179 32bd fc7c e53d 7c04 d5bc
000003a0: 33af debc b4ec 9a3d f54d b33c f445 98bd
000003b0: b7fa e13d 8ce6 58bd 9130 01bd 6eb6 c53d
000003c0: 4506 8b3d 8113 b13d e094 cebd 89fb cd3d
000003d0: 3bdc 83bc a1b0 7a3d 37e5 93bd d4f1 9ebd
000003e0: 8616 9bbc 378d d33c 22b5 cdbd 5b8a ffbc
000003f0: 3cd2 cd3d 0dcf 8d3d ff54 ff3d 0576 813c
0.11539063 0.06962923 -0.036406923 -0.093712896 0.05344968 0.023312187 0.07418865 0.074714735
0.0127752535 -0.05404094 -0.061576705 -0.0068056453 0.08519506 0.052132443 -0.09110432 0.15042357
0.0037425645 -0.13182102 -0.027776152 0.063973196 0.057756044 0.057294328 -0.00029828207 -0.044479992
0.049193077 0.11127551 -0.061039586 -0.11347735 0.082947426 0.06309573 -0.02483147 -0.020452011
-0.09996869 0.07556001 0.031364918 0.025847463 -0.039970342 -0.0471637 0.12926361 -0.026360692
-0.011239212 -0.10681613 0.020490365 -0.02772712 -0.067989014 -0.06300334 -0.027403023 -0.01949074
0.0452034 -0.066168144 -0.087284505 -0.108103625 -0.08509968 -0.027688297 0.026562942 -0.077405035
0.08896279 0.032642063 -0.040731635 -0.055558134 0.051785264 -0.10199653 0.06864179 0.024619108
-0.064595476 -0.10273093 -0.10841322 -0.107198946 -0.062535964 -0.106178105 0.022280646 -0.09772853
-0.07798386 -0.08939287 0.035572097 -0.018110627 0.10166312 0.100975744 0.015514492 -0.09898474
-0.0068320804 -0.10911646 -0.014367647 0.06527555 0.009813602 -0.10906031 0.081419624 0.044835802
-0.040292937 0.061638888 -0.022234825 -0.027310416 -0.017357063 0.012867703 -0.05678332 0.023647662
-0.044440184 -0.08839511 0.01445255 -0.09254304 -0.068490736 0.005196913 0.010282483 0.05434369
0.078183174 0.059863523 -0.006208046 -0.0978193 0.03933878 0.059382673 -0.033552658 0.02344438
-0.034572612 0.081179515 -0.07690921 -0.10063574 0.08518379 0.026774937 -0.004309367 0.018483495
-0.03201145 -0.07300232 -0.020572744 -0.030403128 0.03463151 0.09658293 -0.013201813 -0.032613736
-0.144571 -0.0787382 0.019452037 -0.15885459 -0.09196481 -0.10612859 0.051245295 0.11109041
-0.15238382 0.10288489 0.009899175 -0.080721125 0.015476847 -0.044990163 -0.14860526 0.013956254
0.008251053 -0.00020659863 -0.08499337 -0.13730852 0.103603736 -0.08628221 -0.06813963 -0.047707807
0.014359918 -0.12014653 -0.016911514 -0.15679215 -0.12317858 0.008949987 0.07934154 -0.05150515
0.00383788 0.1050642 0.04037967 -0.10218946 0.084876835 -0.04185428 -0.040622186 -0.040275916
0.14376758 0.012509001 0.02858923 0.020690963 -0.07678425 0.06027757 -0.009421687 0.09138527
-0.061010633 -0.08396282 0.035588697 0.07194092 -0.045026354 -0.093509935 -0.08093416 -0.04390987
-0.10776142 -0.044502415 -0.056320164 -0.03450757 0.15548226 -0.06784625 0.013857365 0.06892472
-0.09425481 -0.057497904 0.066949956 -0.0065108044 0.053093027 0.15070343 0.0917407 0.08506722
0.04681043 -0.07108661 0.060603213 -0.011166585 0.0021058002 0.048943233 -0.13182864 -0.068088666
0.016345311 -0.11190244 -0.025243735 -0.06948545 0.034385346 0.030543922 0.0060726795 -0.015611696
-0.064290844 0.08773921 -0.033480804 0.10114525 -0.026872387 -0.04566307 0.07694124 0.117266685
-0.11259106 -0.075933255 -0.0061374623 -0.003378598 0.10989311 -0.043573085 0.112054795 -0.026003115
-0.02718315 0.07564679 0.021887759 -0.074352175 0.11034148 -0.05295424 -0.031540457 0.09653936
0.06788305 0.08646298 -0.100869894 0.10057742 -0.016096225 0.061203603 -0.07221454 -0.07760969
-0.018931638 0.025824172 -0.10044314 -0.031193903 0.10049865 0.069242574 0.124673836 0.015803346

lstm.bias_ih_l1 f4 [256]
00000000: 1ea7 593d 357b 083e 6aaa 953c e8fb 94bc
00000010: b5d8 f83d 2da1 3a3d f539 8b3d 3949 f43d
00000020: 819c a6bd 3bff 7bbd bf37 8cbd 1cd6 483d
00000030: 374e 99bd 30bd b9bd ba54 e53c e712 ef3d
00000040: 6904 b23c 1abd 16bc c92f b4bd e062 b93d
00000050: f674 893d 8bb4 6dbc 5777 043e 50ff 073e
00000060: fa3c 04bd 0c92 0c3d a90d ac3d c393 a7bd
00000070: 5b21 803d 1006 d03c b511 2fbd 1834 de3d
00000080: 625f 27bd 3a6f 753c 98ba 113c 1515 8abc
00000090: e377 d93d 3497 c43d f14b 74bd 3fb2 08be
000000a0: 0e4b 4fbc e72d b0bd 9da1 913d 0fd3 9b3d
000000b0: f8de 60bb 37f1 ccbd f7e5 2bbc e988 bebd
000000c0: 8a36 a73d 1569 fd3d 28c7 9a3c fc15 eb3d
000000d0: 170e d1bb 526b ef3d 9330 bcbc fdda c13c
000000e0: 1dc5 f43d 23e2 7e3d f010 983d b239 8abc
000000f0: 853b ecbc 5805 233b 6846 bb3d c9e3 923d
00000100: ec55 13bd d4e2 ca3d 4905 fdbd ebed b4bd
00000110: f9f4 65bd 228d ad3d f454 123d 0f85 613c
00000120: 0ce6 d63d bf36 5a3d d796 e03d 445c 3b3d
00000130: 919f 90bd 364d 553d d7f9 913d a03a 4dbc
00000140: 50dd 4f3d a78e ff3c 1322 8c3d 649f a6bd
00000150: e5f8 5cbd 6a50 b73d dae5 783c 6f1e 913d
00000160: 91a5 babb 92dc 8d3b 4bc1 17be 7cee e1bd
00000170: 98e4 fb3d 1bd7 4cbd 9608 44bd 2cf9 7f3c
00000180: 279f d23d 9a52 ad3d b7c9 a1bc 5359 e43c
00000190: a942 253c 513f cebd 7d3b 72bd 4299 163d
000001a0: b54f 24bd d80d 813d 95b0 4c3d c208 953d
000001b0: 8398 acbc 24a8 b43c 589a abbc feec 863c
000001c0: 863c 6f3d dfbc 833d a7d4 06bd 6b57 1bbc
000001d0: 8544 96bb 0632 69bd 110e b33d 6076 723d
000001e0: 2a55 a9bd b950 b23c e9ba d4bd 6416 cdbd
000001f0: 7fc2 39bd 381b fe3c f36d efbc 2da6 833c
00000200: 1a8a 0e3e 80dc a3bd 348a e3bd 68b4 743d
00000210: b2df 013e 1ac8 b33d 4698 98bd f75d 08be
00000220: 8b4a a73d 961d 14be 3db1 513d 112d fbbd
00000230: 2468 bebd d764 923d 1319 08bc e2cb e43c
00000240: 2ff3 b9bd 68f6 a0bc 2a5f 113c 9832 46bd
00000250: 835c b2bd c205 04be 693c 003e a641 e7bd
00000260: cb2d 38bd 683b 3d3c 493f 02bd 3d43 a8bc
00000270: 3a7c d43d 18fa 7a3c 3dfb 01bd 8131 cd3a
00000280: ba0d 74bd 20ae 7a3d 76ca 0dbe d714 35bc
00000290: 38a4 c6bc 8ba8 e2bd bce0 1c3d d9d9 f1bd
000002a0: e63f 15be 934f f43d 439c 15bd dc58 ffbb
000002b0: 31a0 18bb defc d73d 7e4f 9f3c b000 71bc
000002c0: 55c7 b93d bb99 f4b9 051d d0bd 3f5e a4bd
000002d0: f96d b5bd d33b b53d 0b60 dc3d 14f5 723d
000002e0: 9094 4c3d 989a 01be 6584 2abc 64c7 14be
000002f0: a55f a8bd ec90 2e3d a903 c7bd 2d99 553b
00000300: 5e6e f93d 75d1 803c 335c a33d 4944 a53d
00000310: d9e8 3e3d 6435 933d 8623 95bd 7864 753c
00000320: 27cf 8abd 527c 34bd 3e3c d4bb 8a73 dcbd
00000330: bcaf 28bc 2f58 24bd 0c72 c23d 2b91 87bd
00000340: 831f 113b 0f21 e83c d8a9 23bd b9c6 ec3c
00000350: b800 9f3d 4eb9 b63c d505 b03d fe99 b9ba
00000360: 1e19 1ebd e6cb c5bd ed0b 583d 2ba0 223d
00000370: 768b 7e3d 9a38 ea3d b3b1 013e 6156 85bd
00000380: 7237 1d3e 28e8 673d 31bd 593d bd46 863c
00000390: 1cb0 7b3d 11d7 bbbd b9eb 953c c9f8 5f3d
000003a0: c808 04bd abd8 163c 7c51 febd 7f58 6d3d
000003b0: 1e81 ca3d 4122 9e3d 928f 213d 1ffd ff3d
000003c0: e0fc d13d c741 ccbd 04a8 8a3d 7c91 b93c
000003d0: 5df8 2ebd 1990 913d f48f bdbd a90f 9a3d
000003e0: 44ab c23d 63f6 0abd 1b6f 083e 7bba 10bd
000003f0: fa4c 1e3d 0e3d ee3d d3e5 cabc 33a1 023c
0.05313789 0.1332825 0.018269736 -0.018186525 0.121507086 0.045563865 0.06798164 0.119280286
-0.081353195 -0.061522704 -0.0684657 0.049032316 -0.074856214 -0.09069288 0.027994502 0.11673527
0.021730619 -0.009200359 -0.08798177 0.09052062 0.06711762 -0.014508377 0.1293615 0.13280988
-0.032284714 0.03431897 0.08401043 -0.0818248 0.06256362 0.025393516 -0.042741496 0.1084978
-0.04086245 0.014980132 0.008894585 -0.016855756 0.1061857 0.09599152 -0.059642736 -0.13349245
-0.012652172 -0.08602505 0.071109034 0.076086156 -0.0034312587 -0.100069456 -0.01049184 -0.09303457
0.081646994 0.123735584 0.018893793 0.114788026 -0.0063798535 0.116903916 -0.02297238 0.023663992
0.11951659 0.06222738 0.074251056 -0.016873214 -0.028836975 0.0024875011 0.09144288 0.07172353
-0.035970613 0.09906545 -0.12354524 -0.08834442 -0.056141827 0.084741846 0.03572555 0.013764634
0.10493097 0.053274866 0.109662704 0.04574229 -0.07061685 0.052075587 0.07127731 -0.012526184
0.05074817 0.031195952 0.06842437 -0.0813587 -0.0539483 0.08950885 0.01519152 0.07085883
-0.0056960066 0.0043292725 -0.14819829 -0.110318154 0.1229946 -0.050009828 -0.04785975 0.015623372
0.10284262 0.084630206 -0.019749505 0.027874624 0.010086694 -0.100706704 -0.059138764 0.03676725
-0.040115077 0.063014686 0.04997309 0.07277061 -0.021068817 0.022052832 -0.02094762 0.016470429
0.05840733 0.06432509 -0.032917645 -0.009481291 -0.004585805 -0.05693247 0.08742917 0.059194922
-0.08268197 0.021767007 -0.10387213 -0.10014036 -0.0453515 0.031018838 -0.029227233 0.01607045
0.13919869 -0.080010414 -0.111103445 0.05974236 0.12682989 0.08778401 -0.07450919 -0.13317095
0.08168515 -0.14464411 0.05119442 -0.12264455 -0.09297207 0.0714814 -0.008306759 0.02792925
-0.09079587 -0.019648746 0.008872787 -0.048388094 -0.087090515 -0.12892821 0.12523045 -0.11291818
-0.044965547 0.011549808 -0.031798635 -0.020539874 0.10375257 0.015318416 -0.03173374 0.0015655012
-0.059583403 0.061201215 -0.13846764 -0.011052332 -0.024248227 -0.11067303 0.03830026 -0.11809129
-0.14575157 0.1192924 -0.036525976 -0.0077925753 -0.002328884 0.105462775 0.019447085 -0.014709637
0.09071223 -0.00046653845 -0.10161785 -0.080257885 -0.08858866 0.08849301 0.10760506 0.059315756
0.049946368 -0.12656629 -0.010407542 -0.14529186 -0.08221368 0.042618677 -0.09717495 0.003259252
0.12179254 0.015724877 0.0797657 0.08069665 0.04660878 0.07187918 -0.07282166 0.014977567
-0.067777924 -0.044063874 -0.006476908 -0.10764225 -0.010295805 -0.04012316 0.09494409 -0.066194855
0.0022144027 0.028336076 -0.039956897 0.028903352 0.07763809 0.022305157 0.08594862 -0.0014160273
-0.038598172 -0.09658031 0.05274575 0.03970353 0.06214472 0.11436577 0.12665443 -0.06510616
0.15353182 0.056617886 0.053158943 0.016391153 0.061447248 -0.0917188 0.018300878 0.05468062
-0.032234937 0.009206931 -0.12417886 0.057945725 0.098879084 0.07721377 0.03944356 0.12499451
0.1025331 -0.099734835 0.06770328 0.02265238 -0.042717326 0.071075626 -0.092559725 0.07522518
0.095053226 -0.03392638 0.13323633 -0.03533409 0.03864763 0.11632739 -0.024767792 0.007973003
