best_lstm_model.pth (torch, 215410 bytes, 11 tensors)

lstm.weight_ih_l0 f4 [256, 6]
00000000: ea23 133d 7c7a fd3d b998 493e bbab 003e
00000010: cace b03d d489 8f3d 74b7 4cbc b7ae b13d
00000020: fbc8 b6bc 68a2 013e 453c 9a3d 269c e23d
00000030: ff92 073e e8f1 093e 521b 9c3b fd81 883d
00000040: bb70 bc3d 5504 e13c 75a2 ef3d 996c 233e
00000050: 661d d53d 128a bf3d ee36 263e accf 90bc
00000060: 61c4 113e 1136 6ebd 77ce 5c3d 74f3 afbc
00000070: 6707 85bd 8413 0e3c 8e2c 103e d111 a43d
00000080: 837e 9d3d d41f 6bbc dd7d a53d 542b c13c
00000090: 3c5b 3cbd e73a 793d ab89 813c a212 b33d
000000a0: c10e 083e e45a a83d 3462 1c3e 697a 013e
000000b0: 5a9f 813d a103 f7bc 6ecd 51bc 99f2 14bd
000000c0: 5af6 373d add4 b53b e721 07bd 080e 133e
000000d0: 8743 f43d 30f1 fb3d d826 9c3d 9d11 203e
000000e0: 1f13 48bd 8b57 4d3e 6478 f43d 889a 03bd
000000f0: babb e23d 1cb6 20bc c875 9fbc ab35 053e
00000100: f691 4a3d 0771 b0bc 4ac8 e43d 6650 383e
00000110: 5c74 773e 2783 d73d 2de3 c63c d4d9 683e
00000120: deee 7b3e 1869 c83e dfcb bb3e 58c8 323e
00000130: 8710 223e bd60 1f3f 09ca d6bd 7e9a 54bd
00000140: aa8c 8fbc 57c7 43bd 2454 01be 3029 c33d
00000150: da2f aa3d 13e8 4d3e 9853 4d3d 5afa 433e
00000160: c882 f43c ad59 823e faed 663e 9cf2 493e
00000170: 9614 413e 0a6b 573e a541 743d 7d99 d23c
00000180: 845f a0bb cbca d13d a6fd 4bbd af26 273d
00000190: e0e8 233d b1b3 2fbd 270b ed3c f2bc 233d
000001a0: b31c d63d 1957 0b3e 96c8 46bc 367f ec3d
000001b0: 2099 733c b888 71bd 3e4d 56bd d036 943d
000001c0: e7ca f5bc d8d3 633d 7999 b63d b630 fd3d
000001d0: f2ab 183e 5e02 263e 7bf2 9fbd 1c44 98bd
000001e0: e09b 083d 9e5b 023e 1dc6 0d3e 8d92 a7bd
000001f0: 0339 1abd d084 b3bc d691 ed3d d34b 223e
00000200: ce59 12bc 1533 aabc 343a 103d 5677 c83d
00000210: 195f b33d e4c8 0e3e 90e5 43bc ec4e bbbc
00000220: 9e7d 223e 3a61 6c3b b2f6 8c3d 2352 d13c
00000230: adc1 2bbc 2299 bb3d c826 a7bd 8e0a b43e
00000240: 69d8 98bd add4 7b3d 17c4 733c 982d 17bd
00000250: 84ce ac3c bf51 9c3b 8369 fc3d 1b4d 003d
00000260: b1ff 473d 8dd7 f339 d89d 49bb 581b 453e
00000270: 864d b33d 7187 81bd 7b1e 2d3e 83e9 1f3e
00000280: 441b a33d da6b d2ba 7b04 8d3d 42a2 203d
00000290: 2974 8c3d e013 1b3c 4c07 e93d bd05 96bb
000002a0: 8364 1e3e 5b18 ac3d 79c0 94bb 760a 333d
000002b0: 8ee6 4f3d 3a3b 9b3d cdfa 90bd 83a0 f73d
000002c0: b802 83bd 8a9e 233e d867 80bc cb2c c0bd
000002d0: 2091 9d3c 832c 0a3d a9bb 143c aaa0 223d
000002e0: 3184 683c d327 1a3d 6cc7 dabc d084 7ebd
000002f0: a581 9f3b 46c9 2a3e 4c8c 7d3d 3549 e2bd
00000300: a5c4 123e 6251 e9bc f990 123d 68ee a63d
00000310: 168a 2ebd ecef b23d 7de7 643c 24df d7bd
00000320: ded0 3a3d 313d b4bd 40ad 0abe 4a0c 7a3d
00000330: 0231 fc3d ab35 f93d 730e 0b3e c72f 933d
00000340: fddc c53d 58ac 753d cb92 1fbd 5381 57bd
00000350: b44b 36bd e644 183e 2270 023d 1b45 e23d
00000360: 9497 803d 5045 323c c255 8f3d 279c adbc
00000370: 9b14 8b3d 9e43 44bd 85b8 83bd accd edbc
00000380: 1644 bc3c 093c fc3d 530c a63d b3c8 6fbd
00000390: 09ea a6bc 580f 85bd 93be c7bc d017 beba
000003a0: 5e5f 043e 9cd7 dc3d e647 a3ba 8007 fe3d
000003b0: dd59 83bd ef14 ad3d 0066 63bd dd60 04be
000003c0: 6c02 e33d 2048 2a3e 949e 233e 8286 783d
000003d0: d997 3e3d 757b ab3d d2e6 e8bc 3be1 683d
000003e0: 2988 a23c 107a 523d 5e81 e73d 502c 853e
000003f0: ccf4 11bd a5fd 653c a4d5 e43d 2161 173d
0.035922922 0.12376878 0.19687165 0.1256551 0.08633192 0.070087105 -0.0124949105 0.08675902
-0.022312632 0.1265961 0.07531027 0.11064939 0.13239668 0.13471186 0.004763999 0.06665418
0.09201189 0.027467886 0.11700908 0.15959395 0.10405998 0.09352507 0.16231892 -0.01767715
0.14235069 -0.05815703 0.053907838 -0.021478392 -0.064955525 0.008671645 0.14079496 0.08011211
0.07690146 -0.01435085 0.08080647 0.02358023 -0.045985445 0.06084719 0.015812716 0.08743788
0.13286878 0.08220461 0.15271837 0.12644352 0.06329222 -0.030153098 -0.012805326 -0.03636417
0.044912674 0.0055490346 -0.032991316 0.14360821 0.11926942 0.12301862 0.07624596 0.15631719
-0.04884636 0.20052926 0.11937025 -0.032129794 0.11070962 -0.009809043 -0.019465342 0.13008754
0.049455605 -0.02153827 0.111710146 0.1799942 0.24165481 0.10523062 0.024278248 0.22739345
0.2460284 0.3914268 0.3667898 0.17459238 0.15826617 0.62256986 -0.10487754 -0.051905148
-0.017523129 -0.047797527 -0.12629753 0.0952934 0.08309908 0.2010806 0.05012855 0.1913847
0.029847518 0.25459042 0.22551718 0.19721454 0.18855509 0.21036926 0.059632916 0.025707955
-0.004894199 0.10243758 -0.049802445 0.040808376 0.04001701 -0.042895976 0.028935982 0.039975114
0.10454693 0.13607444 -0.012132784 0.11547701 0.014868051 -0.058968276 -0.052319758 0.07237017
-0.030003978 0.05562195 0.08915991 0.123628065 0.14909342 0.1621184 -0.07809921 -0.07434866
0.03335178 0.12730262 0.13845105 -0.08182249 -0.037652027 -0.021913916 0.116000816 0.15849237
-0.008932544 -0.020776311 0.035211757 0.097883865 0.08758373 0.13943821 -0.011956587 -0.022864781
0.15868232 0.0036068694 0.06882991 0.025551861 -0.010483188 0.09160067 -0.08161694 0.35164303
-0.07463152 0.06148212 0.014878294 -0.036908716 0.021094568 0.004770487 0.12324812 0.031323534
0.04882783 0.0004650917 -0.0030764248 0.19248712 0.08755021 -0.063246615 0.16906159 0.15616421
0.07964185 -0.0016053871 0.0688562 0.03921724 0.06858093 0.009465188 0.11378345 -0.004578321
0.1546803 0.08403083 -0.004539546 0.04371115 0.050756983 0.07579656 -0.070790865 0.12091162
-0.06397003 0.15978447 -0.015674517 -0.093835436 0.01923424 0.033733856 0.009077945 0.039704002
0.014191673 0.037635636 -0.02670642 -0.06213838 0.0048677498 0.16678342 0.061901376 -0.110491194
0.14332826 -0.02848119 0.035782788 0.08150941 -0.042612158 0.08737168 0.013971207 -0.105406076
0.045609348 -0.08800734 -0.13542652 0.061046876 0.12314035 0.121684395 0.1357973 0.07186847
0.09661291 0.059978813 -0.038958352 -0.052613568 -0.04450579 0.14870033 0.03184522 0.11048337
0.06278911 0.010880783 0.06998779 -0.021192623 0.067910396 -0.047916047 -0.06431679 -0.029028736
0.022981685 0.12316138 0.081078194 -0.05854101 -0.020375269 -0.06497067 -0.024382865 -0.0014502946
0.12927005 0.10783312 -0.001245734 0.12403774 -0.064136244 0.084512584 -0.055517197 -0.12927575
0.11084446 0.16629076 0.15978462 0.06067515 0.046531532 0.08373157 -0.028430376 0.05685542
0.019840317 0.05138594 0.11303972 0.2601037 -0.035633847 0.014037524 0.11173561 0.036957864

lstm.weight_hh_l0 f4 [256, 64]
00000000: a2bc 44bd c00a 44be 731c 4ebe 0872 6ebc
00000010: d4a2 cfbc 5481 283e 2b31 9ebb 0ed5 a53d
00000020: 1cc9 9abd ec62 8cbc 97f1 653c e397 13be
00000030: a487 8fbe 1796 003e fb56 89bd a4d8 d13d
00000040: ac24 2abe f982 b03c 084e 0dbd 6f88 24be
00000050: 49ab b33d d45c 0e3e 1010 a0bc 30e5 e5bc
00000060: 71e0 1b3e 9a59 cf3d 02ca 213d d340 063d
00000070: 40b2 623c 62e4 b4bd ab5d fc3b 6ee8 03bd
00000080: 629c 6f3c 0d6e 5cbe 2417 68bd 0b86 a8bc
00000090: 8451 edbd c58b 1f3d 3589 debc 02cb d03c
000000a0: fe66 00bd c961 d7bd d1e9 28bd 828d 12bc
000000b0: f751 873e f7e7 7d3d d747 143e 575a c63c
000000c0: 4b46 f7bd fb9a fdbc 1756 8e3d ef37 c33c
000000d0: c978 b13d 9164 1d3d f4e3 92bd 7c07 263d
000000e0: facf 24bd 55ea 9fbd ef08 2e3b 3fc8 20bd
000000f0: e90d bdba 550a 0bbd 8727 82be 4da1 2fbe
00000100: 59c5 0abe 7056 b7bb cdde 22be fb11 e33d
00000110: f835 7f3d e098 bbbc 8f97 38bd e4ad a3bd
00000120: 3c36 c83d 151a a9bd a6d1 243e 161b c13d
00000130: eada 593c 2b5d e73d fdfb 0d3e c8a5 01b9
00000140: f372 d13d aeed a63d 4fa6 ad3d 1190 863d
00000150: 4779 523c bcae 1fbd 9aff abbd a924 89be
00000160: 3bfc 8d3d 4452 393c a30e 913d 9b28 513d
00000170: 1463 60bd b6ff c9bd e821 853d f844 9b3d
00000180: 8e55 463c e6f7 263d be32 6e3d eda6 06bd
00000190: 6474 883d a586 0abe 8be4 6dbd 8636 bbbd
000001a0: c5c8 cabd 1f5e bf3d 6c11 b9bc 0e0a 2f3d
000001b0: 6255 283e a1f7 9f3c 01bd a2bc 07ec 88bd
000001c0: 60e1 5fbd 8466 9fbc 4de1 e73d 0779 ecbd
000001d0: 7e65 a73d dba7 42bd a5cd 87bd 5ebc aebd
000001e0: 7aa6 06bd 0d6b cdbd 830f ee3d 9951 c23d
000001f0: 0732 9ebd 7c24 dd3c 0f5e 06bd 6644 d2bc
00000200: ca77 f3bd 232d 8cbd 4fe0 1abe 623f 0abd
00000210: 2182 643d b7d8 16bd 3658 323d 09cf d1bd
00000220: 4b95 f53c c069 4fbc 71e1 9ebd ee35 ddbc
00000230: bf74 87bd 4afa f03d d897 46bd 5193 223e
00000240: 81da d53d 6437 fa3c 72ff f1bc 68a7 b9bd
00000250: 4351 80bd 3951 9c3d e4a7 0abd 96c3 353d
00000260: 4915 c9bc bcfb bdbd b099 a8bd 2ae6 7e3d
00000270: 1b43 cf3c a96b 14be 419a 03be dfc3 a3bd
00000280: 66e9 86bc f796 aabd b1e0 953c 307d 72bd
00000290: c046 723d b54b 813d 9f07 bd3d 64be 3fbd
000002a0: a0ef 443d e70b 6d3d 8ad3 0f3b fee2 043e
000002b0: 5fbd a13d 6696 84bd 3dd5 30bd 4502 19be
000002c0: db11 bc3d f022 83bc 6c6a e43d 2c1f 06bd
000002d0: 21b6 f93b b4fc 97bc 0eb1 04bd 29e3 ba3d
000002e0: ca37 fe3b 295c 2ebc e47e 343d 0201 01be
000002f0: 3ce5 debd c79a 90bd 6b13 913d b761 08be
00000300: d759 193d 6083 6fbc ca8b a5bc c869 5abd
00000310: 083f 723d 440b b53d 5a2d c43d 756b d63d
00000320: d37f 84bd 5196 14bd a9ac 69bd 0655 a6bc
00000330: 4029 dabd 9f85 0cbe b1f6 0fbe b286 013e
00000340: 8906 c33c 2dd0 2e3d 892e edbd df64 5d3d
00000350: c93a ed3c dfff d7bd d91d 153c 968a 0b3d
00000360: fd18 a4bd 3e22 12bd 1d15 15bd 821b 32bc
00000370: f141 aebd 37bc f0bd bd41 463c 5a7d b9bd
00000380: bb83 6dbd 647f 4c3d 38b3 1f3c 5c47 c8bd
00000390: b69f 6d3d b630 023d e623 3a3d 3e70 3c3d
000003a0: 9e8d 76bd 4a14 5fbd a8a9 a83d 3d98 2dbd
000003b0: 157c e03d 580b 79bd 9c8b e33d 28c1 d13d
000003c0: 051c 683d 8bc1 e23d a89c 84bd 91b6 803b
000003d0: 712c 863d d1b2 cd3c b0dc 573d 0351 4c3d
000003e0: cc47 bf3c a4aa a4bd 8392 983d c746 c63d
000003f0: 48d6 913d f191 7cbd 121f ee3c 7037 a2bd
-0.048031457 -0.19144726 -0.2012804 -0.014553554 -0.025346197 0.16455585 -0.0048276386 0.080972776
-0.0755789 -0.017137013 0.01403465 -0.14413409 -0.28033173 0.12557255 -0.06706043 0.10246399
-0.16615552 0.021546828 -0.034498245 -0.1606767 0.087729044 0.13902599 -0.01953891 -0.028063387
0.15222336 0.10124512 0.03949929 0.032776665 0.013836443 -0.08832623 0.007701596 -0.032204084
0.014624687 -0.21526356 -0.056662694 -0.02057173 -0.115878135 0.038951654 -0.027165035 0.025487427
-0.03134822 -0.10516698 -0.04123861 -0.008944871 0.26429722 0.061988797 0.1448053 0.024213
-0.12073954 -0.03095769 0.06950014 0.023830382 0.08665616 0.038425986 -0.07172385 0.04053448
-0.040237404 -0.07808367 0.0026555618 -0.03925347 -0.0014423701 -0.0339454 -0.25420782 -0.17151375
-0.13551845 -0.005595021 -0.15905304 0.11087414 0.062307328 -0.022900045 -0.045066413 -0.079921514
0.097759694 -0.08256928 0.160956 0.09428994 0.013296822 0.11297067 0.13865657 -0.00012364157
0.10227003 0.081508026 0.084789865 0.06570447 0.012846298 -0.038985 -0.083983615 -0.26785782
0.06932875 0.011311118 0.0708287 0.051064115 -0.05478199 -0.09863226 0.06500608 0.07581514
0.012105359 0.040763758 0.05815386 -0.032874037 0.06662825 -0.13527925 -0.058079284 -0.09141259
-0.09901575 0.09344124 -0.022591315 0.0427342 0.16438821 0.019527258 -0.019865515 -0.06685644
-0.054658294 -0.019458063 0.113222696 -0.11546522 0.08173655 -0.04752336 -0.066310205 -0.08532022
-0.03287361 -0.10030184 0.116240524 0.0948822 -0.07724386 0.026994936 -0.032804545 -0.02566738
-0.11888082 -0.06844547 -0.1512463 -0.033751853 0.055788163 -0.03682777 0.043541156 -0.10244567
0.029978415 -0.01265949 -0.07757843 -0.027003255 -0.066140644 0.11766489 -0.048484653 0.15876509
0.10442067 0.03054399 -0.029540751 -0.09065133 -0.062654994 0.076326795 -0.03385152 0.04437598
-0.024546282 -0.0927653 -0.082324386 0.06223122 0.025300553 -0.14494194 -0.12851812 -0.07996344
-0.016468715 -0.083295755 0.018295618 -0.05920142 0.059149504 0.06313268 0.09229969 -0.04681243
0.048080087 0.05787268 0.0021946155 0.12977216 0.07897448 -0.06473999 -0.04317211 -0.14942272
0.09183093 -0.01600787 0.11153111 -0.03274457 0.0076205884 -0.018553115 -0.032395415 0.091253586
0.0077581154 -0.01064209 0.044066325 -0.1259804 -0.10883567 -0.070607714 0.07083782 -0.13318525
0.037439194 -0.014618725 -0.020208258 -0.053323537 0.059142143 0.08840039 0.095789626 0.104697146
-0.06469693 -0.036276165 -0.057049427 -0.020304214 -0.10652399 -0.13722847 -0.14058949 0.12649038
0.023806827 0.042679 -0.115811415 0.054051276 0.028958695 -0.105468504 0.0091013545 0.034067713
-0.08012579 -0.035677187 -0.03639709 -0.010870816 -0.08508671 -0.11754649 0.012100634 -0.09057112
-0.057986956 0.049926177 0.009747319 -0.09779236 0.05801364 0.031784736 0.04544439 0.04600548
-0.06019365 -0.05446271 0.08235484 -0.042381514 0.10961167 -0.060801834 0.11110613 0.1024192
0.056667347 0.11072072 -0.06475192 0.0039280136 0.06551445 0.02510968 0.0527007 0.049881946
0.023349665 -0.080403596 0.0744982 0.096814685 0.07120949 -0.061662618 0.02906755 -0.0792073

lstm.bias_ih_l0 f4 [256]
00000000: 718a 113d 8697 0b3d 2080 9e3d 208c 81bd
00000010: 0c1a 62bd a7bc e2bd 08d9 a33d a087 7a3d
00000020: 29da 5f3c 288e b73d 5a22 dabc d0d5 093e
00000030: 9c59 c33e b149 f2bd 2c67 3e3e 74c4 903d
00000040: 418e c83d 2be6 0a3e 6504 c2bd 4677 053d
00000050: 4a5e 523d c063 053e c3cb b33d eae4 803d
00000060: 1754 8a3d 68c5 8f3d 093e 983d 6655 8cbb
00000070: 8cc1 80bd de1f c8bd 64cc 71bd 5d77 823d
00000080: bb5f b83d 1fad 9ebd 0965 9bbd d7d0 233d
00000090: e686 833c 137d a93d 5976 e3bd 2a58 c3bc
000000a0: 7199 543d 6544 74bd ddf3 213d 2696 d0bd
000000b0: 87c8 e5bc 0574 c7bd 8979 903b 7d17 b8bd
000000c0: c0a1 eabc 642e e4bd 3c29 f83d 342d 1b3d
000000d0: 8e4f 5e3e adf8 9abb b52f a5bc a73a 90bd
000000e0: 1d70 2fbd 3a15 553d f8ad d5bc 5a92 673c
000000f0: 1c85 4bbd a0d7 ae3c cad5 7e3d 396a cabd
00000100: 456d 36bd 3cb8 0a3d a784 1a3d 0a12 8e3c
00000110: f182 b53d f6a6 2b3d 7901 963c 8d36 e53b
00000120: b588 033e 11fc 92bd 69eb fabd 2c47 87bd
00000130: e808 acbd 3945 b23c 7223 0cbe 215c dc3d
00000140: 0e8d 2d3b 497b f1bd f657 00be 31d9 98bd
00000150: 3a23 713d 6235 ddbb e95e e63d 243b f3bd
00000160: 6b85 78bc 22ed cb3d 0399 a6bd 2971 223d
00000170: dc6e aebd bd3b e43d 2d3a 95bd a86d bd3c
00000180: f2bc 68bd a00f 423d 31ca 21bd 8d80 023c
00000190: aea2 cfbd 3f56 d83b de28 f53c 42d8 8fbc
000001a0: aa16 66bd 0a7e abbc 0019 b3bd 403b ee3d
000001b0: d438 a9bd 75af 9cbd 270a d43d 7ec6 92bc
000001c0: c52b f33c 83b0 e0bd 7e9e 98bd 2bf3 0c3e
000001d0: 261d 23be 3713 12bd 3352 533d 9ce4 44bc
000001e0: cdfb e6bc a4b3 eebd 08ff 86bd 6ace 6fbc
000001f0: 53f2 eebd 4941 a23c 4e62 c0bd 2bdd 303c
00000200: ebcf 1ebd 99d7 3cbc 2667 19be cf65 393d
00000210: f6eb 89bd b49b 473d 141b c03d b87d 58bb
00000220: 6ccf cf3d d26c f4bc 4d03 cf3d 9369 373d
00000230: e132 863d 4577 9a3b 1f09 223b 25aa 96bd
00000240: 65d3 4cbd e5c2 6e3b 0006 a5bc c51d 003c
00000250: 01bf 983d ab06 993c fae1 1dbd e8ef 63bd
00000260: fc63 4d3d 1fdf 62bd f113 35bb de76 a53d
00000270: 831a 86bc 8696 a6bc cdbe 24bd 7d16 82bd
00000280: 74c6 613d c372 dbbd b42e fdbd d27c 933d
00000290: c4a9 9dbc 4117 8abd dd84 c53d 00f1 29bd
000002a0: 41a1 373d 66e3 083e 8287 fa3d 6e48 bebd
000002b0: 7556 3a3d 817a a3bc 5bc8 99bd f785 523d
000002c0: 0115 81bd 45aa eebd 01d0 9f3d 2674 bebd
000002d0: 19a0 f3bd 43b4 643d 9d5d 603d c6d5 713c
000002e0: b548 a23d d005 5e3b 1774 a7ba 31cd d53d
000002f0: 92b7 75bd 4600 6dbd 9e02 07bd cc40 413c
00000300: e216 6c3e 2467 ba3d 0d92 bd3c 198a 4e3d
00000310: cfcf 5dbc c695 853d e01c d33d 15b9 cf3d
00000320: 89ee 023d 1299 503d a236 c13d ee4d 5f3e
00000330: a601 023f 6790 8cbd 9377 51bb 07f4 da3d
00000340: cf1b 0cbd 734c d03c 3965 d0bd 4bb1 9ebd
00000350: f0cf debd 5080 f1bc df20 0d3e a2e3 1d3e
00000360: f463 bc3d 0b2d 9f3d 9e98 43bd 48c7 bb3d
00000370: fcaf b43d 7eea acbd 72d4 c73d d0bc d1bd
00000380: 5bcc b4bc b24c 90bd dde1 babd 8b81 b2bd
00000390: 33eb b0bc 27d8 34bd dba4 6fbd 79bd d13d
000003a0: c77d 123e 0ee3 213e 18a6 853c d359 cfbd
000003b0: 9530 11bd 142f babd 8ca8 e93d c55c 133d
000003c0: 7d00 873c 86ad 30bd 7516 8a3d 70d1 f73d
000003d0: 45cd 603e b829 623d 8e0f ef3d 0183 31bd
000003e0: 7f99 d7bc c0e8 19bd 6492 fc3c 0b84 2bbd
000003f0: 88e0 e1bd 3cc9 173d bfba 1d3d 3704 e4bd
0.03553242 0.03408005 0.07739282 -0.06325555 -0.05520062 -0.11071139 0.0800038 0.0611645
0.013662853 0.08962661 -0.026627708 0.13460469 0.38154304 -0.11830462 0.18594044 0.070687205
0.09792758 0.13564365 -0.094734944 0.03258445 0.051359452 0.13026333 0.08779099 0.06293662
0.0675432 0.07020074 0.07433707 -0.004282641 -0.06286916 -0.09771703 -0.059032813 0.06370423
0.09002634 -0.07747864 -0.0758763 0.039994087 0.016055536 0.08275809 -0.111065574 -0.02384575
0.051904146 -0.05963554 0.039539207 -0.101848885 -0.02804972 -0.09738926 0.0044090194 -0.08988855
-0.028641582 -0.11141661 0.1211724 0.037884906 0.21710035 -0.0047293515 -0.02016435 -0.07042437
-0.04283153 0.052022196 -0.026083931 0.014134014 -0.04968749 0.021343052 0.062215604 -0.098835416
-0.0445378 0.033867106 0.037724163 0.017342586 0.08862866 0.041907273 0.01831125 0.0069950284
0.12845118 -0.07176984 -0.12251932 -0.06605372 -0.08400136 0.021761524 -0.13685396 0.1075976
0.002648178 -0.11791093 -0.12533554 -0.07463301 0.058871485 -0.0067507485 0.112485714 -0.118765146
-0.015168528 0.09957339 -0.081346534 0.0396587 -0.085172385 0.11144207 -0.07286487 0.023123577
-0.056820817 0.047378182 -0.039499465 0.007965219 -0.101384506 0.006602078 0.029926714 -0.017559174
-0.056173958 -0.020934124 -0.08745003 0.11632395 -0.08262792 -0.07650653 0.10353499 -0.017916914
0.029683957 -0.10971167 -0.07452105 0.13764636 -0.15929088 -0.035662856 0.051592063 -0.012017395
-0.02819624 -0.116553575 -0.06591612 -0.014636615 -0.116673134 0.019806521 -0.0939375 0.010794918
-0.038772505 -0.011526012 -0.14980754 0.045263108 -0.06734459 0.048732474 0.09380165 -0.0033033919
0.101469845 -0.029837046 0.101080514 0.044778418 0.06552673 0.004713925 0.0024724675 -0.07356671
-0.05000629 0.0036432084 -0.020144463 0.007819598 0.07458306 0.018679937 -0.038545586 -0.055648714
0.05014418 -0.055388566 -0.0027630294 0.08079313 -0.016370064 -0.020335447 -0.040221024 -0.063519455
0.0551209 -0.107152484 -0.123624235 0.07201542 -0.01924599 -0.067427166 0.09644482 -0.0414896
0.044831518 0.13367996 0.12232877 -0.092911586 0.045492608 -0.019955875 -0.07508918 0.05139729
-0.06302834 -0.1165357 0.078033455 -0.09299497 -0.118957706 0.055835973 0.054776777 0.01476044
0.07924024 0.0033877976 -0.0012775686 0.10439528 -0.05998952 -0.05786159 -0.03296148 0.011795234
0.23055604 0.09101704 0.023140932 0.05042467 -0.013538315 0.06522708 0.10308242 0.101427235
0.031965766 0.05092723 0.094342485 0.21807072 0.50783765 -0.0686348 -0.003196214 0.10691076
-0.034206208 0.025427079 -0.10175557 -0.0774866 -0.10879505 -0.02948013 0.1378207 0.15418866
0.09198752 0.07772263 -0.04775297 0.09168869 0.08822629 -0.08443163 0.097573176 -0.10241091
-0.0220701 -0.070458785 -0.09125111 -0.087161146 -0.021596527 -0.04415145 -0.058506828 0.10241217
0.14305793 0.1580927 0.016314551 -0.101245545 -0.035446722 -0.09091011 0.11409101 0.035977144
0.016479725 -0.043134235 0.067425646 0.12100494 0.21953304 0.055215567 0.11672889 -0.043337826
-0.02631831 -0.037575483 0.030831523 -0.041873973 -0.11029154 0.037057146 0.038508173 -0.111336164

lstm.bias_hh_l0 f4 [256]
00000000: 2b33 4a3e dd32 1dbd 2cc2 98bd 05bd 8dbd
00000010: 9535 783d 07e0 fb3c d441 b53d e03b ec3d
00000020: 04f8 173e a708 123e a937 dd3d fe52 9b3e
00000030: 6f98 063f 8703 9cbd 5533 663d 5214 8a3d
00000040: 0534 bc3d 9f08 bc3c 697e 87bd 24b8 3c3d
00000050: d1fa 063e fb7f aebb d6aa 9d3d 0102 3c3e
00000060: 07ae a13d 3220 f2bc 6d2e 783d 864e 753b
00000070: 49f3 1cbd afce 68bd 5103 963d 21e1 423b
00000080: eed4 8fbc cba0 a93d 1969 ae3d 354c fd3d
00000090: c441 bcbd d1bf bb3d 14e8 823c fc59 4638
000000a0: e453 043e 2234 09bc cdcc 44bc 28cf c23d
000000b0: ade7 fb3d ed86 2dbd 65b2 df3d bf7c 80bc
000000c0: 8da6 96bd cde8 d8bd 3685 863a d0b2 733d
000000d0: abcb 013e d2d9 4a3e f776 303d 214d 5bbd
000000e0: f3d5 fa3d 3f22 92bc dbc5 413d 0a30 50bc
000000f0: 0c67 213d bf2d 5fbc 457c 22bd 35e5 143d
00000100: a264 52be 52bf 26be a75d afbc 9938 9cbb
00000110: 29ea cabd 7dea d3bd 1f34 c83c f8e4 b0bd
00000120: 25fc fe3b fde5 efbc 0974 853d 26d9 753c
00000130: 3c14 06be 53b2 cd3c 64d2 a2bd c584 793d
00000140: 5487 04be 5a08 373d e5bb d4bd 0583 a53b
00000150: e30b ecbd 6db1 f8bd 4b18 dbb9 6688 6a3d
00000160: 9666 4cbd 911a 163d 85c6 b1bd 21b8 e73d
00000170: 363f cbbb a83f 533c d41d d5bb 7e06 7ebd
00000180: 0ea4 aa3c 4717 efbb e180 c8bd fab6 9abd
00000190: a2e7 6b3d 46fa 6fbd 2a83 b43d 74fd 5abd
000001a0: 2a1d 9fbd 73a6 883d 18fe e93d b607 50bd
000001b0: 08c3 643c 5074 a33d 65a4 e03d 2fe5 debd
000001c0: 106c ecbd a20b 9d3c 1402 81bc 93c1 543c
000001d0: 3302 35bd b65e 833c 34cd d7bd fb5b 703d
000001e0: 8ed1 8ebd b2a1 233d 24aa 8a3c 954c 9ebd
000001f0: de62 68bd 17d6 933c 0ee8 1dbc 40fa 473d
00000200: 4222 c43c f6a5 7a3d 521e 483d 013c 9abd
00000210: 9d3c 163d 1c82 e73d 3bd0 853d d6ba a93c
00000220: c6cf a2bd e6ff 06bd b70b be3d 87fb 9ebb
00000230: bda8 bc3d b7b4 6abb 2edf 693d 7752 c93d
00000240: 9ff6 5cbd 5e7a 5d3d fdd1 cebc d7c5 26bd
00000250: acc6 91bd b58b 533a dfc8 cb3c b96f 83bd
00000260: 99fe de3d afef 73bd ed5d aebc 46eb ee3d
00000270: b730 ba3d 5c1d 77bd 49b6 703d 066f 7bbd
00000280: 9487 963d 4324 f5bd 6c6c e43d 5a79 a2bd
00000290: 4fc6 52bd 3507 dabd f09d e33d 9c43 45bd
000002a0: d620 87bd 7019 f43c 52d3 453d 74bc 893d
000002b0: a713 b03d 29b7 3a3d 96ef e93d b10e 09bd
000002c0: 59c7 87bc 05e7 9d3d 31f7 043d efc8 cabc
000002d0: d60c 3a3b b38c 74bc 049c dcbd 70bd 9bbd
000002e0: d92c cabd fc43 383d 4bcb 103e c431 6dbd
000002f0: 8d4c 29bd 4899 913c 4618 86bd fcd4 0abc
00000300: 1cdf 423d bc25 283e 743e 7b3d c1c1 4a3c
00000310: 86d7 9a3d 3542 093d fc42 b33d baa2 05bd
00000320: 4798 74bd 5712 063d eacf b83d 45f6 453d
00000330: 3bee b73e ac72 04be e0c2 b13d 88f8 6f3b
00000340: 0ad0 49bd a7f1 a93c d1c5 c83d ff80 963d
00000350: 4399 ae3c f2d9 b3bd 661e 273c 0e99 6b3e
00000360: 6084 c3bd a4e9 863d 357f dc3d 2e39 8ebc
00000370: 87ed 4f3d 25cf 8ebd aa2a b73d a022 6c3c
00000380: 35db b53c 3319 85bd a1db 813d fd71 ee3d
00000390: dcaf b93d 859a 88bd b681 d33d f804 693d
000003a0: 2737 3fbb b930 633d 10d9 4ebd 57fb e2bd
000003b0: aa0a 193d a221 7d3d 83d8 62bb d469 b23d
000003c0: f9d9 bcbb 5e78 573c d3ad 80bd fff8 8c3c
000003d0: 4c56 8f3e eca7 ee3d 4f09 8abd 7452 b7bd
000003e0: 82f1 023e 7669 9a3c c854 84bc a796 ad3d
000003f0: 0fa9 3c3d 73e2 87bd 55bf 093c ab34 c0bc
0.19746082 -0.038378585 -0.0745891 -0.06920818 0.060597975 0.030746473 0.08850446 0.11534858
0.14840704 0.14261113 0.10801632 0.30336756 0.52576345 -0.0761786 0.056201298 0.06742157
0.091896094 0.02295333 -0.06615908 0.046074048 0.13181616 -0.005325315 0.076986 0.1836014
0.07894521 -0.029556368 0.06059115 0.0037430837 -0.038317952 -0.056837734 0.07324851 0.0029736238
-0.017557587 0.08282622 0.085161395 0.12368051 -0.09192231 0.091674455 0.015979804 4.7290683e-05
0.12922627 -0.008374246 -0.012011719 0.09512168 0.12300048 -0.042365003 0.10922698 -0.015684484
-0.07355986 -0.10591278 0.0010263089 0.0594967 0.1267535 0.19809654 0.043082204 -0.053540353
0.12247839 -0.017838595 0.04730783 -0.012706766 0.039404914 -0.013621747 -0.039669294 0.0363514
-0.20546201 -0.1628392 -0.021406962 -0.004767489 -0.09907944 -0.103474595 0.024438916 -0.08637422
0.007781523 -0.029284472 0.065162726 0.0150053855 -0.13093656 0.025109446 -0.07950285 0.060917635
-0.12942249 0.0446857 -0.103874005 0.005051019 -0.11525705 -0.12143216 -0.00041789035 0.057258986
-0.04990252 0.03664643 -0.08680443 0.11314417 -0.0062026037 0.012893595 -0.0065038 -0.06201791
0.02083018 -0.007296476 -0.09790207 -0.07554431 0.05759395 -0.05858829 0.0881408 -0.053464368
-0.077692345 0.06672373 0.11425418 -0.050788604 0.013962515 0.07981169 0.10968856 -0.10883557
-0.11544049 0.019170586 -0.015748061 0.012985605 -0.04419155 0.016036373 -0.10537186 0.05868147
-0.06973563 0.039949127 0.016926832 -0.077294506 -0.056734912 0.018046422 -0.009637846 0.04882264
0.023942117 0.06119343 0.04885704 -0.07530976 0.0366789 0.11304113 0.065338574 0.020718973
-0.07949786 -0.032958888 0.09279578 -0.0048517617 0.09211872 -0.003581328 0.057097606 0.09830182
-0.053946134 0.054071777 -0.025246615 -0.04071602 -0.07117972 0.0008069829 0.024876056 -0.06417794
0.108884044 -0.059554752 -0.021285022 0.116659686 0.09091323 -0.060330734 0.05876759 -0.061385177
0.07350078 -0.11969807 0.11153492 -0.07933302 -0.051458653 -0.10645906 0.111141086 -0.04816018
-0.0659806 0.029797286 0.048297234 0.06725398 0.085974984 0.04558483 0.114226505 -0.033461276
-0.016574549 0.07710079 0.032462303 -0.024754016 0.0028388998 -0.014926123 -0.10771945 -0.07604492
-0.09871835 0.04498671 0.1414005 -0.05790879 -0.04133277 0.017773286 -0.065475985 -0.008473631
0.047576055 0.16420645 0.061338857 0.012375296 0.07560639 0.033510406 0.08753011 -0.03262589
-0.059715535 0.032732334 0.090240315 0.048330564 0.35923943 -0.12934369 0.086797476 0.0036616642
-0.049270667 0.020745112 0.098033555 0.07348823 0.021313315 -0.08781804 0.010200119 0.23007604
-0.09546733 0.06587532 0.1076645 -0.01736125 0.050763633 -0.069731034 0.089436844 0.014412552
0.022199253 -0.06498947 0.06340719 0.11642835 0.09066746 -0.06670097 0.10327475 0.056889504
-0.002917716 0.055466387 -0.050499976 -0.110830955 0.037363686 0.061799653 -0.0034613914 0.08711591
-0.005763289 0.013151256 -0.06283154 0.017208574 0.27995527 0.11653122 -0.06740057 -0.089512736
0.1278744 0.018849116 -0.016153708 0.08476 0.046059664 -0.06634989 0.0084074335 -0.023462614

lstm.weight_ih_l1 f4 [256, 64]
00000000: 09c2 94bc 6512 ac3c 56a3 793c a4ad d6bd
00000010: 19ce 8d3d f141 8a3d 3290 1cbd 44da ca3d
00000020: 4b73 e0bd eaec 3c3a b231 f4bd 89a0 d1bb
00000030: 0712 f2bd e119 dfbc fe26 efbd 14cd ab3d
00000040: e211 ccbd fccd e53d f2fe e5bc 3d37 a23c
00000050: f8ac a93b 01a4 42bd 475b 8f3d 22af 5abb
00000060: 78fd 1e3d 5cd9 f5bd 13fd a7bd ca27 05be
00000070: e34c d5bd daec 163d ecbd f1bd 8f75 a4bd
00000080: 4639 f2bd 1ce3 0c3d 4bb5 90bd a628 50bd
00000090: 8d82 b93d 01f1 613c 7892 85bd a5d0 2dbb
000000a0: 310e 2ebd af8c 3b3d c1f3 86bd d65d d4bd
000000b0: 98c8 babc f75a 073d 2be3 d93d 94d6 e6bd
000000c0: c4ce 2f3c 08df 4fbd 8cf2 a6bd cc0a 873d
000000d0: c8e6 ed3d 60d9 f03d 72b7 3c3d 2fbb c1bd
000000e0: 5692 eb3d a312 2dbd 628f 2ebd aa68 4c3d
000000f0: 2e35 db3d 7756 9abc 88f9 3b3d fea3 003e
00000100: 32a2 7e3d bf9d a2bd 429b fb3c 96f1 0ebe
00000110: 19d9 563c ed06 ecbc 4c6b debd 0d64 2b3c
00000120: 6557 fcbd 36e7 d6bc f369 82bd 28df 44be
00000130: a3c1 6abe 2dcc 583c f30d 1abe 05bd 93bc
00000140: 3207 643d be44 ce3d dbcf d2bd acc7 62bd
00000150: aab6 053d 2a5c 87bd a165 cf3d 8ce6 e03c
00000160: f07d 10be 0077 97bd 2865 d73d 51e4 b03b
00000170: b7ee f0bd 6f98 5a3c d6b1 33bd d0a3 a63c
00000180: 575b d13c 8aa5 7dbd af3c e1ba 44ef 17bd
00000190: fbf9 66bc 8714 ef3d 6d04 853d a4fd 07bd
000001a0: b992 b4bd abeb e8bc a884 cb3b 6d62 0d3c
000001b0: 3bbc 903d c78a 8dbc 026b c63b f40e 2fbc
000001c0: ee38 97bd 5ecf f23d f273 8bbd c5ff acbc
000001d0: c57c 2a3e 3bf7 d9bd fec1 f23d 99d8 82bd
000001e0: 7466 99bd 1aa3 24be 689d 36bd 6be4 ba3d
000001f0: e0b0 493d 559c 6abd d3d7 b2bd 9c99 dc3c
00000200: 4616 2abd c911 3f3a 939a 70bd fd50 4e3c
00000210: f0d0 26be 04fa e73b 0275 fd3c b1c5 09bd
00000220: 91f8 3a3c b4ce b4bc 92a2 3abd 2335 13be
00000230: 7b9e 24be 47e2 003e e688 3bbd 17c8 283b
00000240: 4f21 00be a1d1 a3bd c7df aebd 064f f43c
00000250: 4a69 babd f937 513d da56 fbbd 1e56 0f3e
00000260: cabd 683d 7bc2 9a3d cbb2 09be c22b 74bd
00000270: 2be9 6abd 8583 b2bd d9e0 1fbe 62b9 643d
00000280: 5880 6dbd a3e7 d03a c241 6cbd 8c96 883c
00000290: 7fca bc3d 7f84 0dbe fe22 a83c 6e71 9cbd
000002a0: 08ea 8f3d b56a bdbb 724c c13d 5531 203e
000002b0: 2f03 b63d d5a5 9ebd 0d19 d9bc 6204 d8bd
000002c0: 9a18 193d f894 43bc 4fcd 0bbe c7a3 14be
000002d0: 5df6 57bb 6e7f c4bd 5d2b 9bbd 67bd 21be
000002e0: 9231 a6bb e0ea 0abe 34f8 093e f593 94bd
000002f0: 4d27 82bd d24a 84bd aeb8 2bbd 37fe 313d
00000300: 74da 18be fdf8 04be 729c 723d 3937 c73c
00000310: 7833 b2bd 11d8 abbd 3036 a23d 87fe 253d
00000320: 256c b13c 9a0b fdba 5d2d 0c3d 0c28 09be
00000330: 31de 17be 0d6c 11bd 7624 823b 3b92 c1bd
00000340: 3512 773c 5761 77bc 630c bdbd 1b01 443d
00000350: cb84 fe3d 14d2 06bc 9c75 de3c c4ad b6bc
00000360: 8613 e23c 3ec0 883c accd 993d 6086 823b
00000370: eec5 0fbe 8fd1 0cbe ea4a 12bc 8324 c9bc
00000380: 8e96 b9bd dd42 9fbd 61c8 f43c 8e70 94bb
00000390: a0a6 d5bd 0e7d 50bd 4c42 f33d efdd ca3d
000003a0: f77c b33b 21d2 47bb add0 083e 3fa3 003e
000003b0: 3934 d8bc 1636 0dbd c51a bc3c c4ec b83c
000003c0: adda 89bd f444 343d d637 80bd e4e6 dfbd
000003d0: c977 143d 1bef bcbd a7e8 f83d cafa 43bd
000003e0: dbb7 ffbd ada5 bd3c 7437 a1bd 73ad 03be
000003f0: 948c d03d c0f4 55bd 6b0f efbd 2027 8a3d
-0.01815893 0.021004865 0.015236696 -0.10482338 0.06924076 0.067508586 -0.038223453 0.09904912
-0.109594904 0.0007206934 -0.11923541 -0.006397311 -0.11819845 -0.02723402 -0.11677359 0.08388725
-0.099643484 0.11220929 -0.028075669 0.01980173 0.00517809 -0.047519688 0.06999832 -0.0033368547
0.038815945 -0.12004349 -0.08202567 -0.1300346 -0.104150556 0.036846973 -0.11803803 -0.08030235
-0.1182733 0.034396276 -0.07065829 -0.050820015 0.09058104 0.01379037 -0.06522077 -0.0026522067
-0.042494003 0.045788463 -0.06589461 -0.1036946 -0.022800729 0.033045735 0.10639032 -0.11271396
0.010730449 -0.05074981 -0.08151731 0.06593856 0.11616284 0.11760211 0.046073385 -0.094595306
0.11502521 -0.0422541 -0.04261721 0.049904503 0.107035026 -0.018840058 0.04589227 0.12562558
0.0621664 -0.07940244 0.030713681 -0.13959345 0.013113284 -0.028811896 -0.10860309 0.010460866
-0.12321357 -0.026233297 -0.063678645 -0.19225752 -0.22925429 0.013232273 -0.15044384 -0.018034467
0.055670924 0.10071705 -0.102935515 -0.055366203 0.032644905 -0.06609376 0.10126806 0.027453683
-0.14110541 -0.07395744 0.10517341 0.005398311 -0.11764281 0.013342007 -0.04387077 0.020341784
0.02555625 -0.06192545 -0.0017184223 -0.037093416 -0.014097686 0.11673837 0.06494985 -0.033200875
-0.088170476 -0.028432688 0.006210882 0.008629424 0.07067152 -0.017278088 0.006055237 -0.010684717
-0.07383905 0.118559584 -0.06809224 -0.021118054 0.16649158 -0.106428586 0.11853407 -0.06388969
-0.074902445 -0.16077843 -0.044583708 0.091255985 0.049240947 -0.057277996 -0.087325715 0.026928715
-0.041525148 0.0007288722 -0.058741163 0.012592551 -0.16290641 0.0070793647 0.030939583 -0.0336358
0.011411802 -0.02207122 -0.045565195 -0.14375739 -0.1607608 0.12586318 -0.045784853 0.0025754028
-0.12512706 -0.07998968 -0.08538776 0.029822838 -0.091021135 0.05107877 -0.12272425 0.13997695
0.056821622 0.075566255 -0.1344711 -0.059612043 -0.057351273 -0.087164916 -0.15613116 0.055840857
-0.057983726 0.0015938174 -0.0576799 0.016673349 0.092183106 -0.13820074 0.020524498 -0.076388225
0.0702706 -0.0057805427 0.09438409 0.15643819 0.08887326 -0.07746474 -0.026501203 -0.10547711
0.037376978 -0.011937372 -0.13652538 -0.14515601 -0.003295324 -0.09594618 -0.0757663 -0.15794908
-0.005071827 -0.1356616 0.13473588 -0.07254783 -0.06355152 -0.06459583 -0.04192417 0.04345533
-0.14927083 -0.12985606 0.05923123 0.024318324 -0.08701223 -0.08390821 0.07920492 0.04052594
0.021658013 -0.0019305826 0.03422295 -0.13394183 -0.14830853 -0.035503436 0.0039716316 -0.094517194
0.0150800245 -0.015098891 -0.09230878 0.047852617 0.12427672 -0.008228797 0.02715569 -0.022299655
0.0275972 0.01669323 0.07509932 0.003983304 -0.14040348 -0.13751815 -0.008928994 -0.024553543
-0.09061919 -0.07776425 0.029880704 -0.004530019 -0.10432172 -0.05090051 0.118778795 0.09905612
0.0054775435 -0.0030490237 0.13360853 0.12562273 -0.02639209 -0.03447541 0.022961983 0.022573836
-0.06731162 0.04401107 -0.0626065 -0.10932711 0.03624705 -0.09225293 0.1215375 -0.047846593
-0.124862395 0.02315029 -0.07871905 -0.12859134 0.10183063 -0.052235365 -0.116728626 0.06745744

lstm.weight_hh_l1 f4 [256, 64]
00000000: 6606 243c be10 c33d 97e7 ef3d 09c3 3b3d
00000010: 6361 323d 87a6 c83d 6636 de3d 074f e7bd
00000020: 359e b83d ee25 e93d d921 91bd e71f 933a
00000030: f282 a83d 7bf6 cdbb 41a2 e8bd 48d2 fb3d
00000040: d8fa cabd 0347 6f3c acf7 fb3d 8957 713d
00000050: 4bae ae3d 9b03 6d3c 1f48 6cbd 6b91 71bd
00000060: cc84 ab3c 736d 04bd 2f23 31bd e7dc cbbd
00000070: e07f 78bd 4cd5 22bd 30bd 5b3c 0de4 a53c
00000080: 1392 a53d d02b b0bd 7230 eebd 93de 7fbd
00000090: f8c4 eabd 3785 cdbd 69f3 fabd 7b79 a93a
000000a0: 2279 8dbb 6179 23bc 6502 f43d cfbf e0bd
000000b0: aab3 9ebd 0bd1 32bd 4c9a 7dbd d7e4 91bd
000000c0: d0e6 b93d 434c 143d 39c9 803c c4e8 27bd
000000d0: a924 2e3d ab8a 093b 1a66 733d 0a15 e3bd
000000e0: b3bc b43d 9925 1dbd 1fc3 9a3d 2649 e53d
000000f0: 6ab6 b63c 7018 91bd ec9e acbd 7a8c a2bd
00000100: 40c0 6bbd be6a ebbc 6122 883d 864c 6e3d
00000110: d288 03bd 5db9 523c 85bf d6bd b54c cb3c
00000120: cd1b fe3c 32b9 33bd c8d8 803c 5418 073e
00000130: 8c76 353c cca4 42bd 152f 68bc 8b25 d43d
00000140: 960b 743b d73a 113d 116c 69bd 4175 3abd
00000150: e790 ba3c dbdb dabd ab1e 093e d5ae 89bd
00000160: 3ca5 8b3d d484 963b a00d 1ebc ce75 d5bc
00000170: 624b 78bb b6bd 843d a216 0e3e 32c8 d53d
00000180: cb82 b2bc b349 a6bd 05d2 f23d 1a5b 0dbe
00000190: ab74 94bd b9d0 983c bf8b e53d 9f1f ecbd
000001a0: 2b03 093d 2539 ba3c f0de 7d3c f7b2 123e
000001b0: 5afa 9d3d 5635 c93c 08aa 023d fd54 a0bd
000001c0: ede9 3c3c 88e1 823d 9336 d13d 4ab4 6ebd
000001d0: ab7e 27bd af64 c83d 7ba9 0ebd 32e5 4a3d
000001e0: bc3d 153d 90a0 8c3d fcba 49bd 177d aabd
000001f0: a527 cfbd 5cd8 d6bd 7fb6 093d 0494 77bd
00000200: f736 f6bc 40c3 dd3d 8c56 fb3c e04c cf3d
00000210: 93af 3abd 2a6b 77bd 0db7 04bd d9b2 e73d
00000220: 0978 e6bd d4e2 2b3c 7b6d 94bd 8456 a6bd
00000230: 827e 06be 9dfa a1bd 2e24 74bd 8e43 82bc
00000240: fdb3 e6bb 6a94 863d e927 edbd 01ad 2b3d
00000250: d145 5b3d 23a0 13bd cf92 cb3c f896 063d
00000260: 5c59 ab3c de6e b13d 6d0d b63c 5edb b3bd
00000270: ef00 a03c f7cc 203d 5e64 a23c ed6d 8a3d
00000280: 81ce aebd 3cc8 4bbd b5ec 8bbd 4cd4 ecbc
00000290: 35f5 0abe 4d31 6dbd b731 69bd bab4 1d3d
000002a0: 5296 13bc 95bf 11be 1d16 9e3b d608 c93d
000002b0: 2dac 1e3d b273 b4bd 9498 8b38 00a4 a5bd
000002c0: 387e d2bd 1b0b 92bd 1fcc 4c3c afe1 173b
000002d0: f003 683d 80af 80bd d276 87bd d9c8 3dbc
000002e0: 581f 053e 8b22 7d3c 07d7 17be 0963 47bd
000002f0: e8d3 c73c 405b 153d 2d1d 3abd 7213 033d
00000300: 7178 663d a2c4 4cbd 6c77 47bd 1f39 043d
00000310: 2625 8fbd 6bfe ac3d 760f 9d3d dd78 82bc
00000320: 29be 11bd 7e57 353d 45e0 2ebd a512 a33b
00000330: 3806 083d a1ad 7d3c 49d0 02be 1e24 f53c
00000340: b919 1e3c afd8 113c 9a44 b4bd 2f80 cd3d
00000350: 24cd 683d 3907 88bd 13f8 9a3d cfc8 3ebc
00000360: ea43 95bd 96a4 1d3e de69 c33c a966 a93b
00000370: d061 f7bb 17fd 473d c02f d33d bf78 e0bd
00000380: aa96 883a f2ee d5bc 4019 dabd 2595 1a3e
00000390: b241 c23c 1732 f4bc ad18 8ebc 4931 8e3c
000003a0: 21f7 e1bd 73b6 2fbc a900 78bd 6fe7 71bd
000003b0: 457e e0bd dccc 3c3d 1996 d93d 0a91 cc3d
000003c0: 1ca0 cc3d 2fc6 a6bc c873 fabc 2f58 d7bd
000003d0: 08e4 023e 763a 233d 14f6 5d3d ccb7 fa3c
000003e0: f81e 2b3d b746 88bc 20fa d43d 0b51 bdbc
000003f0: c2b8 cbbd fb37 283d 865d 053e 1e78 babd
0.010011291 0.09524678 0.11714094 0.045840297 0.043549906 0.097973876 0.108502194 -0.1129437
0.090145506 0.11384188 -0.07086534 0.0011224718 0.08228101 -0.0062854863 -0.113590725 0.12295967
-0.09911126 0.014604333 0.12303099 0.05892137 0.085293375 0.014466192 -0.057685968 -0.058976572
0.020937346 -0.03233094 -0.043246444 -0.09954243 -0.060668826 -0.039754197 0.013411805 0.020250345
0.08084502 -0.086021066 -0.11630334 -0.062468123 -0.1146335 -0.10035174 -0.12253458 0.0012929881
-0.0043174187 -0.009977669 0.11914519 -0.109740846 -0.07749112 -0.04365639 -0.061914727 -0.07123726
0.09077227 0.03620554 0.01572095 -0.040993467 0.04251543 0.0020987194 0.059423544 -0.11087997
0.08825054 -0.038365934 0.07556748 0.111955926 0.022303779 -0.07084739 -0.084287494 -0.0793695
-0.05755639 -0.028737422 0.06647182 0.058178447 -0.032112904 0.012861577 -0.10485748 0.02481685
0.031019116 -0.043877788 0.01572837 0.13192874 0.011075627 -0.047520444 -0.0141713815 0.10358723
0.003723835 0.035456505 -0.056987826 -0.04552198 0.022774173 -0.10686465 0.13390605 -0.067228
0.06818625 0.004593471 -0.009646803 -0.02605715 -0.0037886729 0.06481497 0.13875821 0.10438575
-0.021790883 -0.08119526 0.11856464 -0.13804284 -0.07248815 0.018654214 0.11208295 -0.11529469
0.033450287 0.022732327 0.015495047 0.14326082 0.077137664 0.024561565 0.031900436 -0.0782871
0.011530382 0.06390673 0.10215487 -0.058277406 -0.040892284 0.09784829 -0.034829598 0.049534984
0.036435828 0.06866562 -0.049250588 -0.0832464 -0.101149835 -0.10490486 0.033621307 -0.060443893
-0.030055506 0.108282566 0.030680917 0.101220846 -0.045577597 -0.060404934 -0.032401133 0.11313409
-0.11253364 0.010491092 -0.07247444 -0.0812197 -0.13134196 -0.07909129 -0.059604816 -0.015901353
-0.0070404992 0.065712765 -0.11579878 0.041913036 0.05353338 -0.03604139 0.024850277 0.03285882
0.020916633 0.08663724 0.022223199 -0.08782075 0.019531695 0.03925797 0.01982325 0.06759248
-0.08535481 -0.049751505 -0.06832258 -0.028909825 -0.13570102 -0.057908345 -0.056932177 0.038502432
-0.009008007 -0.14233239 0.0048244135 0.098161384 0.03873842 -0.0881113 6.6564564e-05 -0.08087921
-0.102779806 -0.071310245 0.012499838 0.002317529 0.05664438 -0.06283474 -0.0661446 -0.01158353
0.13000238 0.01545013 -0.1482812 -0.04867843 0.024393037 0.036463976 -0.04543798 0.032000966
0.056267206 -0.04999221 -0.048697874 0.032281037 -0.069895074 0.08446964 0.076689646 -0.015926773
-0.03558174 0.044272892 -0.04269435 0.004976588 0.033209056 0.015483291 -0.12774767 0.029924449
0.009649687 0.008901759 -0.08802147 0.10034215 0.056836262 -0.066420026 0.07566848 -0.011644556
-0.07288344 0.15394816 0.023854192 0.0051697087 -0.007549502 0.04882535 0.10311842 -0.109605305
0.0010420878 -0.026114915 -0.10649347 0.15095957 0.023712967 -0.029809041 -0.01734575 0.017357485
-0.11033464 -0.010724652 -0.060547505 -0.059058603 -0.10961584 0.046093807 0.10624332 0.099886015
0.09991476 -0.020358173 -0.030572787 -0.105148666 0.127823 0.039850675 0.054189757 0.03060522
0.04177758 -0.016635282 0.1039927 -0.023109933 -0.09947349 0.041069012 0.13023958 -0.09104942

lstm.bias_ih_l1 f4 [256]
00000000: ac3d 1bbc ff07 943d e72d a7bd 1bf3 873d
00000010: dc58 163e 0406 9cbd 86d6 723d d4bc 8b3d
00000020: 7732 133e 3872 513e fdfa c93d e8ce 35bd
00000030: 3b4a 25bd e266 31bd 608c 65bd e7a8 0abc
00000040: cf76 d33d 7584 6f3d 6402 1ebd 3c07 f23c
00000050: 2169 cbbc 2dfd 96bd 6f1e 993d 4fdf 8e3c
00000060: 8dea 9f3d ddce 103e a171 b4bd 7d43 cabd
00000070: 7f30 3dbb c602 92bd cf23 e7bd b89b 54bc
00000080: 4709 22bd fb81 a53c f726 b8bd fe71 e2bc
00000090: d376 58bd 4810 b1bd c1c5 0a3e 6760 c3bd
000000a0: 3895 d5bd 472a 003d d588 c73d 5768 de3d
000000b0: 965c 27bd 7f7f 59bc 6839 f7bd ab9c c0bd
000000c0: 756b 253d 3f7b 993a 63fa 1a3e 0625 2ebd
000000d0: 6868 003e e1f0 173b d07c 073e ae7d d03d
000000e0: e207 533d 4854 54bd 90fd 43bc 9898 933d
000000f0: 1fce 9cbd 491a a0bd ed4e 1bbd 44a2 4fbd
00000100: 9d65 4d3d 6422 e63d f953 58bc db2a f33d
00000110: 9851 2fbd db0e 9abc 0348 6bbd b5a7 d63d
00000120: c687 a2bc 379c debd f1ad 0f3d 1b1a f03d
00000130: 49da 063d d002 013d 280b 813d 075a febc
00000140: bd1f a4bb e075 d93c 5997 523c 31d6 ccbd
00000150: fdd4 653d b0eb 48bd bdc4 b93b 4580 9bbd
00000160: 875a 283d fe3f 3ebd a974 10be e76c d03d
00000170: 6192 2a3b 04ca 9d3d deef 2e3d ab19 fd3b
00000180: 39a6 cc3d 02ac f4bc 629f ae3c 8bb0 c83d
00000190: 87ad 653d 3183 093e cb0e 02bd df32 fcbc
000001a0: 5984 3abd 9b93 093e c7ef 883d 706a 0b3d
000001b0: 7397 68bb c8ca e1bd 2fa5 ae3d d5aa 633c
000001c0: f3e4 63bd 819f ed3d 577b c5bd 896a 113d
000001d0: dd1b ee3d fd3b ac3d 30ba da3d 4bf1 83bd
000001e0: eba7 ec3c b017 b23c b825 503d 8f14 f93d
000001f0: acc5 90bd fb64 29bd 62c1 9ebd 6732 5bba
00000200: 2412 063c f0ff c43d 7740 00be d2c0 5a3d
00000210: f2c3 4b3d af4d 07bd 998c ba3c 746f f83d
00000220: 1a0e 05bd a322 cf3d adb6 9ebd 1759 123e
00000230: 4aa6 4139 6cd1 bebd aef4 123c 8128 613d
00000240: ebe8 a3ba 1927 aa3d b2e4 583d 4504 be3d
00000250: d444 4fbd 8f90 b8bd 2282 8c3d 348a dcbd
00000260: 2015 3abd b3c5 bbbd bcb7 09bd acc5 9f3d
00000270: 10bf 1d3c 88c6 9b3d 5c5d 9ebc 6546 81bc
00000280: ed86 103d 35c4 143e b64c 163e a230 3dbd
00000290: c752 ad3d 9bb8 27bd b9ae c93d 9a3f 6f3d
000002a0: 1ad5 bb3d a3c2 843d 29bc 38bd e84d 39bc
000002b0: 6f39 963d 22e5 1abc 65bf 0dbd 91f9 a43c
000002c0: e02d a03b 7116 9f3c 8d7e 91bd 93be 46bd
000002d0: c87c 023e ef87 183e 1d85 9c3d beac 84bd
000002e0: b683 283b f947 30bd 008c efbd bf32 17be
000002f0: c9e4 8fbd ab6a 2fbd edcd 8f3d b83b c13d
00000300: ac86 c7bd 0b3c debd c367 b9bd 4fda d1bd
00000310: 54a8 8b3c 962d 78bd 15b4 81bc 0756 f6bc
00000320: d8da e13c b482 1e3e 631b cd3d 3057 6d3d
00000330: 6de6 243d e042 47bd 9fc3 bfbd 2d91 96bd
00000340: 544c b0bd 6a0a a0bd 6f74 a73d a7d6 3b3d
00000350: ff0c dbbd a9a6 b23d 12e4 b03d de3c b13d
00000360: cacf 323d 944a 323c 9487 b53d 0c5d 73bd
00000370: eb58 d63c 68c7 e5bc 59f8 54bd 1bdc eabd
00000380: 2903 6bbc 3922 c53c f450 1a3d 237a 123d
00000390: ad2e c2bd 7d5d 8f3d e92c 36bd 9be9 db3d
000003a0: ca1a 8e3d a6d7 a53d cb0d 7e3d 5415 943d
000003b0: 422e 9abd b4e5 c7bd aeec d7bd 9ce5 73bd
000003c0: e8a5 a53d b63c 893d a321 493d 226f 8b3d
000003d0: 4231 ea3c ecf4 b13d 2491 9c3d e119 59bd
000003e0: e0da b6bd 3ef3 c43d da43 863d 2be6 303d
000003f0: bfd4 8cba 4639 ae3d 11e1 edbd 3a47 a3bd
-0.009475153 0.07228088 -0.08163052 0.066381656 0.14682335 -0.07618335 0.059286617 0.068231255
0.1437472 0.20453727 0.09862325 -0.044386774 -0.040353995 -0.043311007 -0.056042075 -0.008463121
0.10325395 0.05847593 -0.0385765 0.029544465 -0.024830403 -0.07372508 0.07476508 0.017440466
0.07808409 0.14141412 -0.088107355 -0.098761536 -0.0028868017 -0.07129435 -0.11286127 -0.012976579
-0.03955963 0.020203581 -0.08991807 -0.027642246 -0.052847695 -0.086456835 0.13552 -0.09539872
-0.10428852 0.03129032 0.097428955 0.10859745 -0.04085978 -0.013275026 -0.12071496 -0.09404882
0.040385682 0.0011709704 0.15134577 -0.042515777 0.12539828 0.0023184347 0.13231206 0.101802215
0.05152119 -0.05183819 -0.0119623095 0.07206839 -0.07656502 -0.078175135 -0.037917066 -0.050691858
0.050145734 0.11237028 -0.013203614 0.118734084 -0.042802423 -0.018805912 -0.057441723 0.10481206
-0.019840132 -0.10869639 0.035077993 0.11723729 0.032923017 0.031496823 0.06300956 -0.031048788
-0.0050086663 0.026545465 0.012853467 -0.10001791 0.056111325 -0.049052894 0.005669205 -0.07592825
0.04110196 -0.046447746 -0.14107002 0.101770215 0.002602719 0.07704547 0.042709224 0.007724007
0.09992642 -0.029867176 0.021316234 0.09799298 0.05607369 0.13428952 -0.03175239 -0.030785976
-0.045536373 0.13435213 0.06686359 0.034037054 -0.0035490661 -0.110250056 0.085276 0.01389571
-0.055638265 0.116026886 -0.09642666 0.03550199 0.11626408 0.08409879 0.10680044 -0.06442507
0.028888663 0.02173981 0.05081722 0.12162124 -0.07068953 -0.041356068 -0.077517286 -0.00083616975
0.008183036 0.09619129 -0.12524591 0.053406544 0.049747415 -0.03303307 0.02277212 0.12130633
-0.03248415 0.10114028 -0.077496864 0.14291798 0.00018467862 -0.09317288 0.008969469 0.05497027
-0.0012505328 0.083082385 0.052952476 0.09278158 -0.05060275 -0.09011947 0.06860758 -0.10768548
-0.045430303 -0.091685675 -0.03362249 0.07801375 0.009628072 0.07606226 -0.019331627 -0.015780637
0.035284925 0.14527972 0.146777 -0.046188958 0.08463054 -0.040947538 0.09847779 0.058410265
0.09171505 0.064824365 -0.04510132 -0.011310078 0.07335173 -0.009454044 -0.034606356 0.020138534
0.004888281 0.01941988 -0.07104216 -0.04852159 0.12742913 0.14895605 0.07642577 -0.064782605
0.0025713271 -0.04303739 -0.11696625 -0.14765452 -0.07026059 -0.042826336 0.07021699 0.094352186
-0.097424835 -0.10851296 -0.09052994 -0.10246717 0.017048039 -0.06059035 -0.01583294 -0.030070318
0.027570173 0.15479547 0.10014989 0.057944477 0.040258814 -0.04864776 -0.09363484 -0.07351909
-0.086083084 -0.07814486 0.08176505 0.045859005 -0.10695838 0.08723194 0.08637251 0.086541876
0.043655194 0.010882039 0.0886375 -0.05941491 0.026165446 -0.028049186 -0.051994655 -0.11467763
-0.014344015 0.02406417 0.03767486 0.03576101 -0.09481559 0.07000253 -0.044476423 0.10737916
0.06938703 0.08097772 0.062024873 0.072306305 -0.07528354 -0.09760609 -0.1054319 -0.059545144
0.08088285 0.06701033 0.049104344 0.06808306 0.028587941 0.08689293 0.07644871 -0.053003196
-0.08928466 0.09616707 0.065559104 0.043188255 -0.0010744556 0.08507018 -0.11615194 -0.0797257

lstm.bias_hh_l1 f4 [256]
00000000: 4fa8 83bd 1b70 e83d 2788 9e3d 71af 383d
00000010: f3a9 78bd 8e28 dcbc 1f2f 243e 9968 083d
00000020: e69f 013e eef2 423e 473c e9bd 7f7e 9c3d
00000030: c5e6 7a3d a921 003e cff8 d3bb a8c1 f5bc
00000040: 692b d2bd 0e03 c7bd 5f6e d33d 3bac afbd
00000050: 514e cfbd 6331 bf3d 8372 adbd f0c6 44bd
00000060: fcd0 edbb 3a62 443e c81a 1d3d 7378 96bd
00000070: 6c11 06bc 10e3 9cbd 47e9 623d bfad eb3a
00000080: c50e cdbd cba3 aa3b 32c6 cf3c 2fab 55bd
00000090: 2117 6c3d ec5c e43d 7f54 d03d ad21 d03d
000000a0: 64b2 57bd a67d 0b3e d3d4 da3d 7088 093e
000000b0: ebe3 013e 23de 2cbc 2d9e 91bc 33e8 d0bd
000000c0: ff36 58bb 3ac2 d4bc 3174 bf3c 9dcb 913d
000000d0: 3d7f a9bd 4891 123e ec7a 103e e080 c4bc
000000e0: de10 1fbd 89a7 003e d0b4 a2bd f273 2c3b
000000f0: 8ee6 ffbd a15c b73d d8e4 2a3c f326 8d3d
00000100: 3768 88bc 844b 81bd 3fc7 183e ede7 e0bd
00000110: ba89 f73d 066f 0a3d de8a a03d d1b2 8ebc
00000120: 7bbb f83d efbd 9dbd e1ba c43c 5727 a9bd
00000130: cd95 2e3d 2435 063d 8ec7 3abc cba9 883d
00000140: bfb9 c43d 1568 48bc 7176 92bd 3c8a 1c3d
00000150: 31c1 f23c 3abe 10be 3876 dc3d c73e ddbd
00000160: bf43 003d cdcd 74bd a04c babd 927e 683d
00000170: 6484 dcbd ae62 963d 5d8f fb3d 7903 433d
00000180: 4d85 d23c 855c 75bd 838f b03d 0b1b ba3d
00000190: fd8b f03d 76e9 db3d 9255 c83d 053a 24bd
000001a0: 0e9d 15be e959 753d 9b4b bcbc e18c a0bc
000001b0: 2fb2 5b3d 0d81 7dbd a6d1 6e3d fe3e 44bd
000001c0: a039 cb3c 09fe 4a3c 9f60 ad3d e6b1 babd
000001d0: 192a 40bd 8fa3 dfbd 852a a13c 9137 b73d
000001e0: 6547 50bd ba57 55bd a1aa 97bd 5209 7abd
000001f0: 628a 9c3c 8449 cf3d f852 f83d 7216 443d
00000200: 90bf 68bd 8658 f8bb 06c4 05be 1214 433d
00000210: 55d1 bbbd 802b 993d e203 683d d060 053d
00000220: 4712 1fbe 772a 40bd c772 92bd 7cf1 c53d
00000230: 7cea 86bd c2ea c1bd adac 2a3d c11c 77bd
00000240: 2fc5 6a3d 6b00 653d 268c 01be f338 e9bd
00000250: d2c0 0f3d 4dd4 a1bd 2082 e13d 6990 653d
00000260: e4ac c7bd e5b3 b23c 6019 f2bc b2c0 98bd
00000270: 4b7b b9bd c135 90bd 635f 093e 4268 4e3d
00000280: a199 1e3e 95d3 86bd 580e 833d 0a1c c63d
00000290: edab e0bd 7322 9abd 25da d93d d3a1 7a3c
000002a0: adaa c6bc db06 14be 0bf7 bbbd db36 b23d
000002b0: e57b 8c3d 95ce 2dbd 03b4 853d 37c5 e73c
000002c0: cb63 f7bd e58b 32bb ce0c 17be aecd e7bd
000002d0: 28d7 a2bd e0c2 54bd 3e18 023e 8630 b23d
000002e0: 50cd ff3d 39d3 4b3b 7089 9dbd a9da f6bd
000002f0: 0ca8 d63c 7798 e8bd 39af 8cbc 4a99 b5bd
00000300: 3640 31bd d9ee cfbd 9f7d bdbd ef8b a93d
00000310: 1e7a c03d 80a9 8abd cffa b93d 56f2 4b3c
00000320: 6be3 f63d f6c1 413d fccb 893c 5e67 863c
00000330: 7f46 0f3d 034e a03c 7374 c13d fb5c 0dbe
00000340: 24ce fb3d b83b c5bd efca 063e b7a6 06be
00000350: 2f60 853d 29c7 67bc f61d be3d c443 fc3d
00000360: a8f7 553d 191a 203e 5a73 47bd da62 0d3e
00000370: 8dfa 8abc cdf2 5cbd 26a5 bc3d e5e9 4fbd
00000380: a596 e53d 2b59 f1bc 04e4 103e 6d3e 60bd
00000390: e2c9 82bd cd31 6c3c 84f4 fd3d d3e1 683d
000003a0: fbd1 f43c 0623 bf3d 53b1 6bbd 3f49 99bd
000003b0: e85d 88bd 2a2b dcbd 514e a03c c4f7 7e3d
000003c0: 77ae 4dbd 1a99 85bd b174 d03d 2f12 093e
000003d0: 856d 823d 32dc dabd 5abc 08bd 0aa0 8cbd
000003e0: 30b8 c3bd 3ad2 d3bb c4b2 5e3c 1f76 7abd
000003f0: e20d 93bd 2154 b53b 48b7 bf3c 24c4 dcbd
-0.06428587 0.113495074 0.07740813 0.04508919 -0.06070895 -0.026874807 0.160336 0.033302877
0.12658653 0.19037983 -0.1138845 0.07641315 0.061255235 0.1251284 -0.0064688693 -0.029999569
-0.10262186 -0.097173795 0.10323786 -0.08577772 -0.101223595 0.09335592 -0.08469107 -0.048041284
-0.007257579 0.19178095 0.03835562 -0.073471926 -0.008182865 -0.07660496 0.05539825 0.0017980858
-0.10012583 0.005207514 0.025363062 -0.052165207 0.057639245 0.11150536 0.10172366 0.10162673
-0.05266036 0.1362215 0.10685124 0.13430953 0.126846 -0.010551008 -0.01777562 -0.102005385
-0.0032991765 -0.02597152 0.023370834 0.07118914 -0.08276222 0.14313233 0.14109391 -0.023987234
-0.038834445 0.1256391 -0.079446435 0.0026314226 -0.12495147 0.089532144 0.010430537 0.068921946
-0.016651256 -0.063132316 0.14919756 -0.10981736 0.12086816 0.033797286 0.07838987 -0.01741925
0.12145134 -0.077022426 0.024014892 -0.082594566 0.04262333 0.032765523 -0.011400117 0.066730104
0.09605741 -0.012231846 -0.07151497 0.038217768 0.029633136 -0.14135066 0.10764736 -0.108029895
0.031314608 -0.05976658 -0.09096646 0.05676133 -0.10767439 0.073430404 0.12283204 0.047610734
0.025698328 -0.059902687 0.08621123 0.09087189 0.11745451 0.107378885 0.09781946 -0.040094394
-0.14610693 0.059900198 -0.02298527 -0.019598426 0.053636726 -0.06189065 0.058305405 -0.047911637
0.024807751 0.012389668 0.08465695 -0.09115963 -0.046915147 -0.10919868 0.019673595 0.08946145
-0.050849337 -0.052085616 -0.07405592 -0.061044045 0.019108955 0.10121444 0.121252 0.047872968
-0.056823313 -0.007578912 -0.13063058 0.047626562 -0.09170786 0.07479 0.056644328 0.03256303
-0.15534316 -0.046915498 -0.07150798 0.096652 -0.06587693 -0.094686046 0.041668583 -0.060330156
0.057316955 0.0559086 -0.12651119 -0.11387815 0.035095997 -0.07901821 0.110111475 0.056045923
-0.09749773 0.021814296 -0.029553115 -0.07458629 -0.090567194 -0.07041503 0.13415293 0.050392397
0.15488292 -0.06583325 0.0639922 0.09673317 -0.10970292 -0.07526102 0.10637311 0.015297371
-0.024251306 -0.1445574 -0.09177979 0.08701869 0.068595685 -0.04243334 0.06528475 0.028292282
-0.12079581 -0.0027244028 -0.14750978 -0.11318527 -0.07951194 -0.05194366 0.1270456 0.08700661
0.12490332 0.003110124 -0.0769223 -0.12053425 0.026203178 -0.11357205 -0.017173396 -0.08867128
-0.043274127 -0.101529785 -0.09252476 0.08278643 0.09398292 -0.06770611 0.09081041 0.012447914
0.12055095 0.047304116 0.0168209 0.016406711 0.03497934 0.019568449 0.09446039 -0.13805
0.122951776 -0.09630531 0.1316335 -0.13149534 0.06512486 -0.014146605 0.09283058 0.12317613
0.052238137 0.15634955 -0.048693992 0.1380724 -0.016965175 -0.05394249 0.09211187 -0.05076017
0.11210374 -0.029461464 0.14149481 -0.054747034 -0.06386162 0.01441617 0.12400153 0.056855988
0.029885283 0.09332852 -0.057542156 -0.07484674 -0.06658536 -0.107504204 0.019568594 0.062248006
-0.05021521 -0.065233424 0.10178507 0.13385843 0.063685454 -0.1068653 -0.03338275 -0.068664625
-0.09556615 -0.00646427 0.013592426 -0.061147805 -0.07180382 0.0055337106 0.023402825 -0.10779598
